…
  warnings.warn(
/home/shabbeer/anaconda3_v2/envs/pai_new/lib/python3.12/site-packages/torchvision/models/_utils.py:223: UserWarning: Arguments other than a weight enum or `None` for 'weights' are deprecated since 0.13 and may be removed in the future. The current behavior is equivalent to passing `weights=ResNet18_Weights.IMAGENET1K_V1`. You can also use `weights=ResNet18_Weights.DEFAULT` to get the most up-to-date weights.
  warnings.warn(msg)
cuda
starting main call
ResNet(
  (conv1): PAIModulePyThread(
    (layerArray): ModuleList(
      (0): PBSequential(
        (model): Sequential(
          (0): Conv2d(3, 64, kernel_size=(7, 7), stride=(2, 2), padding=(3, 3), bias=False)
          (1): BatchNorm2d(64, eps=1e-05, momentum=0.1, affine=True, track_running_stats=True)
        )
      )
    )
  )
  (relu): ReLU(inplace=True)
  (maxpool): MaxPool2d(kernel_size=3, stride=2, padding=1, dilation=1, ceil_mode=False)
  (layer1): Sequential(
    (0): PAIModulePyThread(
      (layerArray): ModuleList(
        (0): BasicBlock(
          (conv1): Conv2d(64, 64, kernel_size=(3, 3), stride=(1, 1), padding=(1, 1), bias=False)
          (bn1): BatchNorm2d(64, eps=1e-05, momentum=0.1, affine=True, track_running_stats=True)
          (relu): ReLU(inplace=True)
          (conv2): Conv2d(64, 64, kernel_size=(3, 3), stride=(1, 1), padding=(1, 1), bias=False)
          (bn2): BatchNorm2d(64, eps=1e-05, momentum=0.1, affine=True, track_running_stats=True)
        )
      )
    )
    (1): PAIModulePyThread(
      (layerArray): ModuleList(
        (0): BasicBlock(
          (conv1): Conv2d(64, 64, kernel_size=(3, 3), stride=(1, 1), padding=(1, 1), bias=False)
          (bn1): BatchNorm2d(64, eps=1e-05, momentum=0.1, affine=True, track_running_stats=True)
          (relu): ReLU(inplace=True)
          (conv2): Conv2d(64, 64, kernel_size=(3, 3), stride=(1, 1), padding=(1, 1), bias=False)
          (bn2): BatchNorm2d(64, eps=1e-05, momentum=0.1, affine=True, track_running_stats=True)
        )
      )
    )
  )
  (layer2): Sequential(
    (0): PAIModulePyThread(
      (layerArray): ModuleList(
        (0): BasicBlock(
          (conv1): Conv2d(64, 128, kernel_size=(3, 3), stride=(2, 2), padding=(1, 1), bias=False)
          (bn1): BatchNorm2d(128, eps=1e-05, momentum=0.1, affine=True, track_running_stats=True)
          (relu): ReLU(inplace=True)
          (conv2): Conv2d(128, 128, kernel_size=(3, 3), stride=(1, 1), padding=(1, 1), bias=False)
          (bn2): BatchNorm2d(128, eps=1e-05, momentum=0.1, affine=True, track_running_stats=True)
          (downsample): Sequential(
            (0): Conv2d(64, 128, kernel_size=(1, 1), stride=(2, 2), bias=False)
            (1): BatchNorm2d(128, eps=1e-05, momentum=0.1, affine=True, track_running_stats=True)
          )
        )
      )
    )
    (1): PAIModulePyThread(
      (layerArray): ModuleList(
        (0): BasicBlock(
          (conv1): Conv2d(128, 128, kernel_size=(3, 3), stride=(1, 1), padding=(1, 1), bias=False)
          (bn1): BatchNorm2d(128, eps=1e-05, momentum=0.1, affine=True, track_running_stats=True)
          (relu): ReLU(inplace=True)
          (conv2): Conv2d(128, 128, kernel_size=(3, 3), stride=(1, 1), padding=(1, 1), bias=False)
          (bn2): BatchNorm2d(128, eps=1e-05, momentum=0.1, affine=True, track_running_stats=True)
        )
      )
    )
  )
  (layer3): Sequential(
    (0): PAIModulePyThread(
      (layerArray): ModuleList(
        (0): BasicBlock(
          (conv1): Conv2d(128, 256, kernel_size=(3, 3), stride=(2, 2), padding=(1, 1), bias=False)
          (bn1): BatchNorm2d(256, eps=1e-05, momentum=0.1, affine=True, track_running_stats=True)
          (relu): ReLU(inplace=True)
          (conv2): Conv2d(256, 256, kernel_size=(3, 3), stride=(1, 1), padding=(1, 1), bias=False)
          (bn2): BatchNorm2d(256, eps=1e-05, momentum=0.1, affine=True, track_running_stats=True)
          (downsample): Sequential(
            (0): Conv2d(128, 256, kernel_size=(1, 1), stride=(2, 2), bias=False)
            (1): BatchNorm2d(256, eps=1e-05, momentum=0.1, affine=True, track_running_stats=True)
          )
        )
      )
    )
    (1): PAIModulePyThread(
      (layerArray): ModuleList(
        (0): BasicBlock(
          (conv1): Conv2d(256, 256, kernel_size=(3, 3), stride=(1, 1), padding=(1, 1), bias=False)
          (bn1): BatchNorm2d(256, eps=1e-05, momentum=0.1, affine=True, track_running_stats=True)
          (relu): ReLU(inplace=True)
          (conv2): Conv2d(256, 256, kernel_size=(3, 3), stride=(1, 1), padding=(1, 1), bias=False)
          (bn2): BatchNorm2d(256, eps=1e-05, momentum=0.1, affine=True, track_running_stats=True)
        )
      )
    )
  )
  (layer4): Sequential(
    (0): PAIModulePyThread(
      (layerArray): ModuleList(
        (0): BasicBlock(
          (conv1): Conv2d(256, 512, kernel_size=(3, 3), stride=(2, 2), padding=(1, 1), bias=False)
          (bn1): BatchNorm2d(512, eps=1e-05, momentum=0.1, affine=True, track_running_stats=True)
          (relu): ReLU(inplace=True)
          (conv2): Conv2d(512, 512, kernel_size=(3, 3), stride=(1, 1), padding=(1, 1), bias=False)
          (bn2): BatchNorm2d(512, eps=1e-05, momentum=0.1, affine=True, track_running_stats=True)
          (downsample): Sequential(
            (0): Conv2d(256, 512, kernel_size=(1, 1), stride=(2, 2), bias=False)
            (1): BatchNorm2d(512, eps=1e-05, momentum=0.1, affine=True, track_running_stats=True)
          )
        )
      )
    )
    (1): PAIModulePyThread(
      (layerArray): ModuleList(
        (0): BasicBlock(
          (conv1): Conv2d(512, 512, kernel_size=(3, 3), stride=(1, 1), padding=(1, 1), bias=False)
          (bn1): BatchNorm2d(512, eps=1e-05, momentum=0.1, affine=True, track_running_stats=True)
          (relu): ReLU(inplace=True)
          (conv2): Conv2d(512, 512, kernel_size=(3, 3), stride=(1, 1), padding=(1, 1), bias=False)
          (bn2): BatchNorm2d(512, eps=1e-05, momentum=0.1, affine=True, track_running_stats=True)
        )
      )
    )
  )
  (avgpool): AdaptiveAvgPool2d(output_size=(1, 1))
  (fc): PAIModulePyThread(
    (layerArray): ModuleList(
      (0): Linear(in_features=512, out_features=1000, bias=True)
    )
  )
)
layer1.0.layerArray.0.conv1
layer1.1.layerArray.0.conv1
layer2.0.layerArray.0.conv1
layer2.1.layerArray.0.conv1
layer3.0.layerArray.0.conv1
layer3.1.layerArray.0.conv1
layer4.0.layerArray.0.conv1
layer4.1.layerArray.0.conv1
Length of layer bounds  8
selected  UNIMP indices  [[19], [5], [102, 21], [118, 18], [195, 24, 33, 209], [101, 6, 212, 69], [460, 498, 279, 242, 103, 439, 130, 35], [249, 133, 451, 382, 505, 393, 24, 297]]
The length of indices is  8
63
63
126
126
252
252
504
504
ResNet(
  (conv1): PAIModulePyThread(
    (layerArray): ModuleList(
      (0): PBSequential(
        (model): Sequential(
          (0): Conv2d(3, 64, kernel_size=(7, 7), stride=(2, 2), padding=(3, 3), bias=False)
          (1): BatchNorm2d(64, eps=1e-05, momentum=0.1, affine=True, track_running_stats=True)
        )
      )
    )
  )
  (relu): ReLU(inplace=True)
  (maxpool): MaxPool2d(kernel_size=3, stride=2, padding=1, dilation=1, ceil_mode=False)
  (layer1): Sequential(
    (0): PAIModulePyThread(
      (layerArray): ModuleList(
        (0): BasicBlock(
          (conv1): Conv2d(64, 63, kernel_size=(3, 3), stride=(1, 1), padding=(1, 1), bias=False)
          (bn1): BatchNorm2d(63, eps=1e-05, momentum=0.1, affine=True, track_running_stats=True)
          (relu): ReLU(inplace=True)
          (conv2): Conv2d(63, 64, kernel_size=(3, 3), stride=(1, 1), padding=(1, 1), bias=False)
          (bn2): BatchNorm2d(64, eps=1e-05, momentum=0.1, affine=True, track_running_stats=True)
        )
      )
    )
    (1): PAIModulePyThread(
      (layerArray): ModuleList(
        (0): BasicBlock(
          (conv1): Conv2d(64, 63, kernel_size=(3, 3), stride=(1, 1), padding=(1, 1), bias=False)
          (bn1): BatchNorm2d(63, eps=1e-05, momentum=0.1, affine=True, track_running_stats=True)
          (relu): ReLU(inplace=True)
          (conv2): Conv2d(63, 64, kernel_size=(3, 3), stride=(1, 1), padding=(1, 1), bias=False)
          (bn2): BatchNorm2d(64, eps=1e-05, momentum=0.1, affine=True, track_running_stats=True)
        )
      )
    )
  )
  (layer2): Sequential(
    (0): PAIModulePyThread(
      (layerArray): ModuleList(
        (0): BasicBlock(
          (conv1): Conv2d(64, 126, kernel_size=(3, 3), stride=(2, 2), padding=(1, 1), bias=False)
          (bn1): BatchNorm2d(126, eps=1e-05, momentum=0.1, affine=True, track_running_stats=True)
          (relu): ReLU(inplace=True)
          (conv2): Conv2d(126, 128, kernel_size=(3, 3), stride=(1, 1), padding=(1, 1), bias=False)
          (bn2): BatchNorm2d(128, eps=1e-05, momentum=0.1, affine=True, track_running_stats=True)
          (downsample): Sequential(
            (0): Conv2d(126, 128, kernel_size=(1, 1), stride=(2, 2), bias=False)
            (1): BatchNorm2d(128, eps=1e-05, momentum=0.1, affine=True, track_running_stats=True)
          )
        )
      )
    )
    (1): PAIModulePyThread(
      (layerArray): ModuleList(
        (0): BasicBlock(
          (conv1): Conv2d(128, 126, kernel_size=(3, 3), stride=(1, 1), padding=(1, 1), bias=False)
          (bn1): BatchNorm2d(126, eps=1e-05, momentum=0.1, affine=True, track_running_stats=True)
          (relu): ReLU(inplace=True)
          (conv2): Conv2d(126, 128, kernel_size=(3, 3), stride=(1, 1), padding=(1, 1), bias=False)
          (bn2): BatchNorm2d(128, eps=1e-05, momentum=0.1, affine=True, track_running_stats=True)
        )
      )
    )
  )
  (layer3): Sequential(
    (0): PAIModulePyThread(
      (layerArray): ModuleList(
        (0): BasicBlock(
          (conv1): Conv2d(128, 252, kernel_size=(3, 3), stride=(2, 2), padding=(1, 1), bias=False)
          (bn1): BatchNorm2d(252, eps=1e-05, momentum=0.1, affine=True, track_running_stats=True)
          (relu): ReLU(inplace=True)
          (conv2): Conv2d(252, 256, kernel_size=(3, 3), stride=(1, 1), padding=(1, 1), bias=False)
          (bn2): BatchNorm2d(256, eps=1e-05, momentum=0.1, affine=True, track_running_stats=True)
          (downsample): Sequential(
            (0): Conv2d(252, 256, kernel_size=(1, 1), stride=(2, 2), bias=False)
            (1): BatchNorm2d(256, eps=1e-05, momentum=0.1, affine=True, track_running_stats=True)
          )
        )
      )
    )
    (1): PAIModulePyThread(
      (layerArray): ModuleList(
        (0): BasicBlock(
          (conv1): Conv2d(256, 252, kernel_size=(3, 3), stride=(1, 1), padding=(1, 1), bias=False)
          (bn1): BatchNorm2d(252, eps=1e-05, momentum=0.1, affine=True, track_running_stats=True)
          (relu): ReLU(inplace=True)
          (conv2): Conv2d(252, 256, kernel_size=(3, 3), stride=(1, 1), padding=(1, 1), bias=False)
          (bn2): BatchNorm2d(256, eps=1e-05, momentum=0.1, affine=True, track_running_stats=True)
        )
      )
    )
  )
  (layer4): Sequential(
    (0): PAIModulePyThread(
      (layerArray): ModuleList(
        (0): BasicBlock(
          (conv1): Conv2d(256, 504, kernel_size=(3, 3), stride=(2, 2), padding=(1, 1), bias=False)
          (bn1): BatchNorm2d(504, eps=1e-05, momentum=0.1, affine=True, track_running_stats=True)
          (relu): ReLU(inplace=True)
          (conv2): Conv2d(504, 512, kernel_size=(3, 3), stride=(1, 1), padding=(1, 1), bias=False)
          (bn2): BatchNorm2d(512, eps=1e-05, momentum=0.1, affine=True, track_running_stats=True)
          (downsample): Sequential(
            (0): Conv2d(504, 512, kernel_size=(1, 1), stride=(2, 2), bias=False)
            (1): BatchNorm2d(512, eps=1e-05, momentum=0.1, affine=True, track_running_stats=True)
          )
        )
      )
    )
    (1): PAIModulePyThread(
      (layerArray): ModuleList(
        (0): BasicBlock(
          (conv1): Conv2d(512, 504, kernel_size=(3, 3), stride=(1, 1), padding=(1, 1), bias=False)
          (bn1): BatchNorm2d(504, eps=1e-05, momentum=0.1, affine=True, track_running_stats=True)
          (relu): ReLU(inplace=True)
          (conv2): Conv2d(504, 512, kernel_size=(3, 3), stride=(1, 1), padding=(1, 1), bias=False)
          (bn2): BatchNorm2d(512, eps=1e-05, momentum=0.1, affine=True, track_running_stats=True)
        )
      )
    )
  )
  (avgpool): AdaptiveAvgPool2d(output_size=(1, 1))
  (fc): PAIModulePyThread(
    (layerArray): ModuleList(
      (0): Linear(in_features=512, out_features=1000, bias=True)
    )
  )
)
Training the model after pruning

---------------Epoch number: 0 ---Train accuracy: 88.61702127659575 ----Test accuracy: 87.77127659574468 --------------

---------------Epoch number: 1 ---Train accuracy: 88.98581560283688 ----Test accuracy: 88.41489361702128 --------------

---------------Epoch number: 2 ---Train accuracy: 89.17198581560284 ----Test accuracy: 88.14893617021276 --------------
…
layer1.0.layerArray.0.conv1
layer1.1.layerArray.0.conv1
layer2.0.layerArray.0.conv1
layer2.1.layerArray.0.conv1
layer3.0.layerArray.0.conv1
layer3.1.layerArray.0.conv1
layer4.0.layerArray.0.conv1
layer4.1.layerArray.0.conv1
Length of layer bounds  8
selected  UNIMP indices  [[53], [18], [61, 73], [31, 85], [189, 218, 184, 74], [246, 158, 200, 11], [401, 197, 337, 425, 157, 427, 270, 415], [331, 103, 200, 221, 37, 110, 241, 58]]
The length of indices is  8
62
62
124
124
248
248
496
496
ResNet(
  (conv1): PAIModulePyThread(
    (layerArray): ModuleList(
      (0): PBSequential(
        (model): Sequential(
          (0): Conv2d(3, 64, kernel_size=(7, 7), stride=(2, 2), padding=(3, 3), bias=False)
          (1): BatchNorm2d(64, eps=1e-05, momentum=0.1, affine=True, track_running_stats=True)
        )
      )
    )
  )
  (relu): ReLU(inplace=True)
  (maxpool): MaxPool2d(kernel_size=3, stride=2, padding=1, dilation=1, ceil_mode=False)
  (layer1): Sequential(
    (0): PAIModulePyThread(
      (layerArray): ModuleList(
        (0): BasicBlock(
          (conv1): Conv2d(64, 62, kernel_size=(3, 3), stride=(1, 1), padding=(1, 1), bias=False)
          (bn1): BatchNorm2d(62, eps=1e-05, momentum=0.1, affine=True, track_running_stats=True)
          (relu): ReLU(inplace=True)
          (conv2): Conv2d(62, 64, kernel_size=(3, 3), stride=(1, 1), padding=(1, 1), bias=False)
          (bn2): BatchNorm2d(64, eps=1e-05, momentum=0.1, affine=True, track_running_stats=True)
        )
      )
    )
    (1): PAIModulePyThread(
      (layerArray): ModuleList(
        (0): BasicBlock(
          (conv1): Conv2d(64, 62, kernel_size=(3, 3), stride=(1, 1), padding=(1, 1), bias=False)
          (bn1): BatchNorm2d(62, eps=1e-05, momentum=0.1, affine=True, track_running_stats=True)
          (relu): ReLU(inplace=True)
          (conv2): Conv2d(62, 64, kernel_size=(3, 3), stride=(1, 1), padding=(1, 1), bias=False)
          (bn2): BatchNorm2d(64, eps=1e-05, momentum=0.1, affine=True, track_running_stats=True)
        )
      )
    )
  )
  (layer2): Sequential(
    (0): PAIModulePyThread(
      (layerArray): ModuleList(
        (0): BasicBlock(
          (conv1): Conv2d(64, 124, kernel_size=(3, 3), stride=(2, 2), padding=(1, 1), bias=False)
          (bn1): BatchNorm2d(124, eps=1e-05, momentum=0.1, affine=True, track_running_stats=True)
          (relu): ReLU(inplace=True)
          (conv2): Conv2d(124, 128, kernel_size=(3, 3), stride=(1, 1), padding=(1, 1), bias=False)
          (bn2): BatchNorm2d(128, eps=1e-05, momentum=0.1, affine=True, track_running_stats=True)
          (downsample): Sequential(
            (0): Conv2d(124, 128, kernel_size=(1, 1), stride=(2, 2), bias=False)
            (1): BatchNorm2d(128, eps=1e-05, momentum=0.1, affine=True, track_running_stats=True)
          )
        )
      )
    )
    (1): PAIModulePyThread(
      (layerArray): ModuleList(
        (0): BasicBlock(
          (conv1): Conv2d(128, 124, kernel_size=(3, 3), stride=(1, 1), padding=(1, 1), bias=False)
          (bn1): BatchNorm2d(124, eps=1e-05, momentum=0.1, affine=True, track_running_stats=True)
          (relu): ReLU(inplace=True)
          (conv2): Conv2d(124, 128, kernel_size=(3, 3), stride=(1, 1), padding=(1, 1), bias=False)
          (bn2): BatchNorm2d(128, eps=1e-05, momentum=0.1, affine=True, track_running_stats=True)
        )
      )
    )
  )
  (layer3): Sequential(
    (0): PAIModulePyThread(
      (layerArray): ModuleList(
        (0): BasicBlock(
          (conv1): Conv2d(128, 248, kernel_size=(3, 3), stride=(2, 2), padding=(1, 1), bias=False)
          (bn1): BatchNorm2d(248, eps=1e-05, momentum=0.1, affine=True, track_running_stats=True)
          (relu): ReLU(inplace=True)
          (conv2): Conv2d(248, 256, kernel_size=(3, 3), stride=(1, 1), padding=(1, 1), bias=False)
          (bn2): BatchNorm2d(256, eps=1e-05, momentum=0.1, affine=True, track_running_stats=True)
          (downsample): Sequential(
            (0): Conv2d(248, 256, kernel_size=(1, 1), stride=(2, 2), bias=False)
            (1): BatchNorm2d(256, eps=1e-05, momentum=0.1, affine=True, track_running_stats=True)
          )
        )
      )
    )
    (1): PAIModulePyThread(
      (layerArray): ModuleList(
        (0): BasicBlock(
          (conv1): Conv2d(256, 248, kernel_size=(3, 3), stride=(1, 1), padding=(1, 1), bias=False)
          (bn1): BatchNorm2d(248, eps=1e-05, momentum=0.1, affine=True, track_running_stats=True)
          (relu): ReLU(inplace=True)
          (conv2): Conv2d(248, 256, kernel_size=(3, 3), stride=(1, 1), padding=(1, 1), bias=False)
          (bn2): BatchNorm2d(256, eps=1e-05, momentum=0.1, affine=True, track_running_stats=True)
        )
      )
    )
  )
  (layer4): Sequential(
    (0): PAIModulePyThread(
      (layerArray): ModuleList(
        (0): BasicBlock(
          (conv1): Conv2d(256, 496, kernel_size=(3, 3), stride=(2, 2), padding=(1, 1), bias=False)
          (bn1): BatchNorm2d(496, eps=1e-05, momentum=0.1, affine=True, track_running_stats=True)
          (relu): ReLU(inplace=True)
          (conv2): Conv2d(496, 512, kernel_size=(3, 3), stride=(1, 1), padding=(1, 1), bias=False)
          (bn2): BatchNorm2d(512, eps=1e-05, momentum=0.1, affine=True, track_running_stats=True)
          (downsample): Sequential(
            (0): Conv2d(496, 512, kernel_size=(1, 1), stride=(2, 2), bias=False)
            (1): BatchNorm2d(512, eps=1e-05, momentum=0.1, affine=True, track_running_stats=True)
          )
        )
      )
    )
    (1): PAIModulePyThread(
      (layerArray): ModuleList(
        (0): BasicBlock(
          (conv1): Conv2d(512, 496, kernel_size=(3, 3), stride=(1, 1), padding=(1, 1), bias=False)
          (bn1): BatchNorm2d(496, eps=1e-05, momentum=0.1, affine=True, track_running_stats=True)
          (relu): ReLU(inplace=True)
          (conv2): Conv2d(496, 512, kernel_size=(3, 3), stride=(1, 1), padding=(1, 1), bias=False)
          (bn2): BatchNorm2d(512, eps=1e-05, momentum=0.1, affine=True, track_running_stats=True)
        )
      )
    )
  )
  (avgpool): AdaptiveAvgPool2d(output_size=(1, 1))
  (fc): PAIModulePyThread(
    (layerArray): ModuleList(
      (0): Linear(in_features=512, out_features=1000, bias=True)
    )
  )
)
Training the model after pruning

---------------Epoch number: 0 ---Train accuracy: 89.85726950354609 ----Test accuracy: 88.79255319148936 --------------

---------------Epoch number: 1 ---Train accuracy: 90.0 ----Test accuracy: 88.45212765957447 --------------

---------------Epoch number: 2 ---Train accuracy: 90.02482269503547 ----Test accuracy: 88.65957446808511 --------------
…
layer1.0.layerArray.0.conv1
layer1.1.layerArray.0.conv1
layer2.0.layerArray.0.conv1
layer2.1.layerArray.0.conv1
layer3.0.layerArray.0.conv1
layer3.1.layerArray.0.conv1
layer4.0.layerArray.0.conv1
layer4.1.layerArray.0.conv1
Length of layer bounds  8
selected  UNIMP indices  [[32], [45], [106, 55], [102, 114], [198, 219, 84, 77], [60, 190, 63, 34], [384, 434, 212, 148, 335, 28, 492, 16], [358, 221, 269, 224, 345, 445, 316, 222]]
The length of indices is  8
61
61
122
122
244
244
488
488
ResNet(
  (conv1): PAIModulePyThread(
    (layerArray): ModuleList(
      (0): PBSequential(
        (model): Sequential(
          (0): Conv2d(3, 64, kernel_size=(7, 7), stride=(2, 2), padding=(3, 3), bias=False)
          (1): BatchNorm2d(64, eps=1e-05, momentum=0.1, affine=True, track_running_stats=True)
        )
      )
    )
  )
  (relu): ReLU(inplace=True)
  (maxpool): MaxPool2d(kernel_size=3, stride=2, padding=1, dilation=1, ceil_mode=False)
  (layer1): Sequential(
    (0): PAIModulePyThread(
      (layerArray): ModuleList(
        (0): BasicBlock(
          (conv1): Conv2d(64, 61, kernel_size=(3, 3), stride=(1, 1), padding=(1, 1), bias=False)
          (bn1): BatchNorm2d(61, eps=1e-05, momentum=0.1, affine=True, track_running_stats=True)
          (relu): ReLU(inplace=True)
          (conv2): Conv2d(61, 64, kernel_size=(3, 3), stride=(1, 1), padding=(1, 1), bias=False)
          (bn2): BatchNorm2d(64, eps=1e-05, momentum=0.1, affine=True, track_running_stats=True)
        )
      )
    )
    (1): PAIModulePyThread(
      (layerArray): ModuleList(
        (0): BasicBlock(
          (conv1): Conv2d(64, 61, kernel_size=(3, 3), stride=(1, 1), padding=(1, 1), bias=False)
          (bn1): BatchNorm2d(61, eps=1e-05, momentum=0.1, affine=True, track_running_stats=True)
          (relu): ReLU(inplace=True)
          (conv2): Conv2d(61, 64, kernel_size=(3, 3), stride=(1, 1), padding=(1, 1), bias=False)
          (bn2): BatchNorm2d(64, eps=1e-05, momentum=0.1, affine=True, track_running_stats=True)
        )
      )
    )
  )
  (layer2): Sequential(
    (0): PAIModulePyThread(
      (layerArray): ModuleList(
        (0): BasicBlock(
          (conv1): Conv2d(64, 122, kernel_size=(3, 3), stride=(2, 2), padding=(1, 1), bias=False)
          (bn1): BatchNorm2d(122, eps=1e-05, momentum=0.1, affine=True, track_running_stats=True)
          (relu): ReLU(inplace=True)
          (conv2): Conv2d(122, 128, kernel_size=(3, 3), stride=(1, 1), padding=(1, 1), bias=False)
          (bn2): BatchNorm2d(128, eps=1e-05, momentum=0.1, affine=True, track_running_stats=True)
          (downsample): Sequential(
            (0): Conv2d(122, 128, kernel_size=(1, 1), stride=(2, 2), bias=False)
            (1): BatchNorm2d(128, eps=1e-05, momentum=0.1, affine=True, track_running_stats=True)
          )
        )
      )
    )
    (1): PAIModulePyThread(
      (layerArray): ModuleList(
        (0): BasicBlock(
          (conv1): Conv2d(128, 122, kernel_size=(3, 3), stride=(1, 1), padding=(1, 1), bias=False)
          (bn1): BatchNorm2d(122, eps=1e-05, momentum=0.1, affine=True, track_running_stats=True)
          (relu): ReLU(inplace=True)
          (conv2): Conv2d(122, 128, kernel_size=(3, 3), stride=(1, 1), padding=(1, 1), bias=False)
          (bn2): BatchNorm2d(128, eps=1e-05, momentum=0.1, affine=True, track_running_stats=True)
        )
      )
    )
  )
  (layer3): Sequential(
    (0): PAIModulePyThread(
      (layerArray): ModuleList(
        (0): BasicBlock(
          (conv1): Conv2d(128, 244, kernel_size=(3, 3), stride=(2, 2), padding=(1, 1), bias=False)
          (bn1): BatchNorm2d(244, eps=1e-05, momentum=0.1, affine=True, track_running_stats=True)
          (relu): ReLU(inplace=True)
          (conv2): Conv2d(244, 256, kernel_size=(3, 3), stride=(1, 1), padding=(1, 1), bias=False)
          (bn2): BatchNorm2d(256, eps=1e-05, momentum=0.1, affine=True, track_running_stats=True)
          (downsample): Sequential(
            (0): Conv2d(244, 256, kernel_size=(1, 1), stride=(2, 2), bias=False)
            (1): BatchNorm2d(256, eps=1e-05, momentum=0.1, affine=True, track_running_stats=True)
          )
        )
      )
    )
    (1): PAIModulePyThread(
      (layerArray): ModuleList(
        (0): BasicBlock(
          (conv1): Conv2d(256, 244, kernel_size=(3, 3), stride=(1, 1), padding=(1, 1), bias=False)
          (bn1): BatchNorm2d(244, eps=1e-05, momentum=0.1, affine=True, track_running_stats=True)
          (relu): ReLU(inplace=True)
          (conv2): Conv2d(244, 256, kernel_size=(3, 3), stride=(1, 1), padding=(1, 1), bias=False)
          (bn2): BatchNorm2d(256, eps=1e-05, momentum=0.1, affine=True, track_running_stats=True)
        )
      )
    )
  )
  (layer4): Sequential(
    (0): PAIModulePyThread(
      (layerArray): ModuleList(
        (0): BasicBlock(
          (conv1): Conv2d(256, 488, kernel_size=(3, 3), stride=(2, 2), padding=(1, 1), bias=False)
          (bn1): BatchNorm2d(488, eps=1e-05, momentum=0.1, affine=True, track_running_stats=True)
          (relu): ReLU(inplace=True)
          (conv2): Conv2d(488, 512, kernel_size=(3, 3), stride=(1, 1), padding=(1, 1), bias=False)
          (bn2): BatchNorm2d(512, eps=1e-05, momentum=0.1, affine=True, track_running_stats=True)
          (downsample): Sequential(
            (0): Conv2d(488, 512, kernel_size=(1, 1), stride=(2, 2), bias=False)
            (1): BatchNorm2d(512, eps=1e-05, momentum=0.1, affine=True, track_running_stats=True)
          )
        )
      )
    )
    (1): PAIModulePyThread(
      (layerArray): ModuleList(
        (0): BasicBlock(
          (conv1): Conv2d(512, 488, kernel_size=(3, 3), stride=(1, 1), padding=(1, 1), bias=False)
          (bn1): BatchNorm2d(488, eps=1e-05, momentum=0.1, affine=True, track_running_stats=True)
          (relu): ReLU(inplace=True)
          (conv2): Conv2d(488, 512, kernel_size=(3, 3), stride=(1, 1), padding=(1, 1), bias=False)
          (bn2): BatchNorm2d(512, eps=1e-05, momentum=0.1, affine=True, track_running_stats=True)
        )
      )
    )
  )
  (avgpool): AdaptiveAvgPool2d(output_size=(1, 1))
  (fc): PAIModulePyThread(
    (layerArray): ModuleList(
      (0): Linear(in_features=512, out_features=1000, bias=True)
    )
  )
)
Training the model after pruning

---------------Epoch number: 0 ---Train accuracy: 89.15336879432624 ----Test accuracy: 86.80319148936171 --------------

---------------Epoch number: 1 ---Train accuracy: 89.51418439716312 ----Test accuracy: 88.64893617021276 --------------

---------------Epoch number: 2 ---Train accuracy: 89.65514184397163 ----Test accuracy: 87.79255319148936 --------------
…
layer1.0.layerArray.0.conv1
layer1.1.layerArray.0.conv1
layer2.0.layerArray.0.conv1
layer2.1.layerArray.0.conv1
layer3.0.layerArray.0.conv1
layer3.1.layerArray.0.conv1
layer4.0.layerArray.0.conv1
layer4.1.layerArray.0.conv1
Length of layer bounds  8
selected  UNIMP indices  [[13], [28], [120, 81], [98, 90], [32, 54, 52, 16], [225, 181, 182, 92], [368, 172, 430, 65, 46, 358, 100, 381], [276, 468, 33, 174, 200, 296, 479, 266]]
The length of indices is  8
60
60
120
120
240
240
480
480
ResNet(
  (conv1): PAIModulePyThread(
    (layerArray): ModuleList(
      (0): PBSequential(
        (model): Sequential(
          (0): Conv2d(3, 64, kernel_size=(7, 7), stride=(2, 2), padding=(3, 3), bias=False)
          (1): BatchNorm2d(64, eps=1e-05, momentum=0.1, affine=True, track_running_stats=True)
        )
      )
    )
  )
  (relu): ReLU(inplace=True)
  (maxpool): MaxPool2d(kernel_size=3, stride=2, padding=1, dilation=1, ceil_mode=False)
  (layer1): Sequential(
    (0): PAIModulePyThread(
      (layerArray): ModuleList(
        (0): BasicBlock(
          (conv1): Conv2d(64, 60, kernel_size=(3, 3), stride=(1, 1), padding=(1, 1), bias=False)
          (bn1): BatchNorm2d(60, eps=1e-05, momentum=0.1, affine=True, track_running_stats=True)
          (relu): ReLU(inplace=True)
          (conv2): Conv2d(60, 64, kernel_size=(3, 3), stride=(1, 1), padding=(1, 1), bias=False)
          (bn2): BatchNorm2d(64, eps=1e-05, momentum=0.1, affine=True, track_running_stats=True)
        )
      )
    )
    (1): PAIModulePyThread(
      (layerArray): ModuleList(
        (0): BasicBlock(
          (conv1): Conv2d(64, 60, kernel_size=(3, 3), stride=(1, 1), padding=(1, 1), bias=False)
          (bn1): BatchNorm2d(60, eps=1e-05, momentum=0.1, affine=True, track_running_stats=True)
          (relu): ReLU(inplace=True)
          (conv2): Conv2d(60, 64, kernel_size=(3, 3), stride=(1, 1), padding=(1, 1), bias=False)
          (bn2): BatchNorm2d(64, eps=1e-05, momentum=0.1, affine=True, track_running_stats=True)
        )
      )
    )
  )
  (layer2): Sequential(
    (0): PAIModulePyThread(
      (layerArray): ModuleList(
        (0): BasicBlock(
          (conv1): Conv2d(64, 120, kernel_size=(3, 3), stride=(2, 2), padding=(1, 1), bias=False)
          (bn1): BatchNorm2d(120, eps=1e-05, momentum=0.1, affine=True, track_running_stats=True)
          (relu): ReLU(inplace=True)
          (conv2): Conv2d(120, 128, kernel_size=(3, 3), stride=(1, 1), padding=(1, 1), bias=False)
          (bn2): BatchNorm2d(128, eps=1e-05, momentum=0.1, affine=True, track_running_stats=True)
          (downsample): Sequential(
            (0): Conv2d(120, 128, kernel_size=(1, 1), stride=(2, 2), bias=False)
            (1): BatchNorm2d(128, eps=1e-05, momentum=0.1, affine=True, track_running_stats=True)
          )
        )
      )
    )
    (1): PAIModulePyThread(
      (layerArray): ModuleList(
        (0): BasicBlock(
          (conv1): Conv2d(128, 120, kernel_size=(3, 3), stride=(1, 1), padding=(1, 1), bias=False)
          (bn1): BatchNorm2d(120, eps=1e-05, momentum=0.1, affine=True, track_running_stats=True)
          (relu): ReLU(inplace=True)
          (conv2): Conv2d(120, 128, kernel_size=(3, 3), stride=(1, 1), padding=(1, 1), bias=False)
          (bn2): BatchNorm2d(128, eps=1e-05, momentum=0.1, affine=True, track_running_stats=True)
        )
      )
    )
  )
  (layer3): Sequential(
    (0): PAIModulePyThread(
      (layerArray): ModuleList(
        (0): BasicBlock(
          (conv1): Conv2d(128, 240, kernel_size=(3, 3), stride=(2, 2), padding=(1, 1), bias=False)
          (bn1): BatchNorm2d(240, eps=1e-05, momentum=0.1, affine=True, track_running_stats=True)
          (relu): ReLU(inplace=True)
          (conv2): Conv2d(240, 256, kernel_size=(3, 3), stride=(1, 1), padding=(1, 1), bias=False)
          (bn2): BatchNorm2d(256, eps=1e-05, momentum=0.1, affine=True, track_running_stats=True)
          (downsample): Sequential(
            (0): Conv2d(240, 256, kernel_size=(1, 1), stride=(2, 2), bias=False)
            (1): BatchNorm2d(256, eps=1e-05, momentum=0.1, affine=True, track_running_stats=True)
          )
        )
      )
    )
    (1): PAIModulePyThread(
      (layerArray): ModuleList(
        (0): BasicBlock(
          (conv1): Conv2d(256, 240, kernel_size=(3, 3), stride=(1, 1), padding=(1, 1), bias=False)
          (bn1): BatchNorm2d(240, eps=1e-05, momentum=0.1, affine=True, track_running_stats=True)
          (relu): ReLU(inplace=True)
          (conv2): Conv2d(240, 256, kernel_size=(3, 3), stride=(1, 1), padding=(1, 1), bias=False)
          (bn2): BatchNorm2d(256, eps=1e-05, momentum=0.1, affine=True, track_running_stats=True)
        )
      )
    )
  )
  (layer4): Sequential(
    (0): PAIModulePyThread(
      (layerArray): ModuleList(
        (0): BasicBlock(
          (conv1): Conv2d(256, 480, kernel_size=(3, 3), stride=(2, 2), padding=(1, 1), bias=False)
          (bn1): BatchNorm2d(480, eps=1e-05, momentum=0.1, affine=True, track_running_stats=True)
          (relu): ReLU(inplace=True)
          (conv2): Conv2d(480, 512, kernel_size=(3, 3), stride=(1, 1), padding=(1, 1), bias=False)
          (bn2): BatchNorm2d(512, eps=1e-05, momentum=0.1, affine=True, track_running_stats=True)
          (downsample): Sequential(
            (0): Conv2d(480, 512, kernel_size=(1, 1), stride=(2, 2), bias=False)
            (1): BatchNorm2d(512, eps=1e-05, momentum=0.1, affine=True, track_running_stats=True)
          )
        )
      )
    )
    (1): PAIModulePyThread(
      (layerArray): ModuleList(
        (0): BasicBlock(
          (conv1): Conv2d(512, 480, kernel_size=(3, 3), stride=(1, 1), padding=(1, 1), bias=False)
          (bn1): BatchNorm2d(480, eps=1e-05, momentum=0.1, affine=True, track_running_stats=True)
          (relu): ReLU(inplace=True)
          (conv2): Conv2d(480, 512, kernel_size=(3, 3), stride=(1, 1), padding=(1, 1), bias=False)
          (bn2): BatchNorm2d(512, eps=1e-05, momentum=0.1, affine=True, track_running_stats=True)
        )
      )
    )
  )
  (avgpool): AdaptiveAvgPool2d(output_size=(1, 1))
  (fc): PAIModulePyThread(
    (layerArray): ModuleList(
      (0): Linear(in_features=512, out_features=1000, bias=True)
    )
  )
)
Training the model after pruning

---------------Epoch number: 0 ---Train accuracy: 89.23758865248227 ----Test accuracy: 88.13297872340425 --------------

---------------Epoch number: 1 ---Train accuracy: 89.71631205673759 ----Test accuracy: 84.8563829787234 --------------

---------------Epoch number: 2 ---Train accuracy: 89.79698581560284 ----Test accuracy: 88.11702127659575 --------------
…
layer1.0.layerArray.0.conv1
layer1.1.layerArray.0.conv1
layer2.0.layerArray.0.conv1
layer2.1.layerArray.0.conv1
layer3.0.layerArray.0.conv1
layer3.1.layerArray.0.conv1
layer4.0.layerArray.0.conv1
layer4.1.layerArray.0.conv1
Length of layer bounds  8
selected  UNIMP indices  [[35], [25], [16, 103], [39, 78], [137, 235, 182, 204], [214, 200, 79, 30], [17, 249, 235, 18, 296, 34, 46, 404], [258, 301, 206, 106, 426, 40, 294, 292]]
The length of indices is  8
59
59
118
118
236
236
472
472
ResNet(
  (conv1): PAIModulePyThread(
    (layerArray): ModuleList(
      (0): PBSequential(
        (model): Sequential(
          (0): Conv2d(3, 64, kernel_size=(7, 7), stride=(2, 2), padding=(3, 3), bias=False)
          (1): BatchNorm2d(64, eps=1e-05, momentum=0.1, affine=True, track_running_stats=True)
        )
      )
    )
  )
  (relu): ReLU(inplace=True)
  (maxpool): MaxPool2d(kernel_size=3, stride=2, padding=1, dilation=1, ceil_mode=False)
  (layer1): Sequential(
    (0): PAIModulePyThread(
      (layerArray): ModuleList(
        (0): BasicBlock(
          (conv1): Conv2d(64, 59, kernel_size=(3, 3), stride=(1, 1), padding=(1, 1), bias=False)
          (bn1): BatchNorm2d(59, eps=1e-05, momentum=0.1, affine=True, track_running_stats=True)
          (relu): ReLU(inplace=True)
          (conv2): Conv2d(59, 64, kernel_size=(3, 3), stride=(1, 1), padding=(1, 1), bias=False)
          (bn2): BatchNorm2d(64, eps=1e-05, momentum=0.1, affine=True, track_running_stats=True)
        )
      )
    )
    (1): PAIModulePyThread(
      (layerArray): ModuleList(
        (0): BasicBlock(
          (conv1): Conv2d(64, 59, kernel_size=(3, 3), stride=(1, 1), padding=(1, 1), bias=False)
          (bn1): BatchNorm2d(59, eps=1e-05, momentum=0.1, affine=True, track_running_stats=True)
          (relu): ReLU(inplace=True)
          (conv2): Conv2d(59, 64, kernel_size=(3, 3), stride=(1, 1), padding=(1, 1), bias=False)
          (bn2): BatchNorm2d(64, eps=1e-05, momentum=0.1, affine=True, track_running_stats=True)
        )
      )
    )
  )
  (layer2): Sequential(
    (0): PAIModulePyThread(
      (layerArray): ModuleList(
        (0): BasicBlock(
          (conv1): Conv2d(64, 118, kernel_size=(3, 3), stride=(2, 2), padding=(1, 1), bias=False)
          (bn1): BatchNorm2d(118, eps=1e-05, momentum=0.1, affine=True, track_running_stats=True)
          (relu): ReLU(inplace=True)
          (conv2): Conv2d(118, 128, kernel_size=(3, 3), stride=(1, 1), padding=(1, 1), bias=False)
          (bn2): BatchNorm2d(128, eps=1e-05, momentum=0.1, affine=True, track_running_stats=True)
          (downsample): Sequential(
            (0): Conv2d(118, 128, kernel_size=(1, 1), stride=(2, 2), bias=False)
            (1): BatchNorm2d(128, eps=1e-05, momentum=0.1, affine=True, track_running_stats=True)
          )
        )
      )
    )
    (1): PAIModulePyThread(
      (layerArray): ModuleList(
        (0): BasicBlock(
          (conv1): Conv2d(128, 118, kernel_size=(3, 3), stride=(1, 1), padding=(1, 1), bias=False)
          (bn1): BatchNorm2d(118, eps=1e-05, momentum=0.1, affine=True, track_running_stats=True)
          (relu): ReLU(inplace=True)
          (conv2): Conv2d(118, 128, kernel_size=(3, 3), stride=(1, 1), padding=(1, 1), bias=False)
          (bn2): BatchNorm2d(128, eps=1e-05, momentum=0.1, affine=True, track_running_stats=True)
        )
      )
    )
  )
  (layer3): Sequential(
    (0): PAIModulePyThread(
      (layerArray): ModuleList(
        (0): BasicBlock(
          (conv1): Conv2d(128, 236, kernel_size=(3, 3), stride=(2, 2), padding=(1, 1), bias=False)
          (bn1): BatchNorm2d(236, eps=1e-05, momentum=0.1, affine=True, track_running_stats=True)
          (relu): ReLU(inplace=True)
          (conv2): Conv2d(236, 256, kernel_size=(3, 3), stride=(1, 1), padding=(1, 1), bias=False)
          (bn2): BatchNorm2d(256, eps=1e-05, momentum=0.1, affine=True, track_running_stats=True)
          (downsample): Sequential(
            (0): Conv2d(236, 256, kernel_size=(1, 1), stride=(2, 2), bias=False)
            (1): BatchNorm2d(256, eps=1e-05, momentum=0.1, affine=True, track_running_stats=True)
          )
        )
      )
    )
    (1): PAIModulePyThread(
      (layerArray): ModuleList(
        (0): BasicBlock(
          (conv1): Conv2d(256, 236, kernel_size=(3, 3), stride=(1, 1), padding=(1, 1), bias=False)
          (bn1): BatchNorm2d(236, eps=1e-05, momentum=0.1, affine=True, track_running_stats=True)
          (relu): ReLU(inplace=True)
          (conv2): Conv2d(236, 256, kernel_size=(3, 3), stride=(1, 1), padding=(1, 1), bias=False)
          (bn2): BatchNorm2d(256, eps=1e-05, momentum=0.1, affine=True, track_running_stats=True)
        )
      )
    )
  )
  (layer4): Sequential(
    (0): PAIModulePyThread(
      (layerArray): ModuleList(
        (0): BasicBlock(
          (conv1): Conv2d(256, 472, kernel_size=(3, 3), stride=(2, 2), padding=(1, 1), bias=False)
          (bn1): BatchNorm2d(472, eps=1e-05, momentum=0.1, affine=True, track_running_stats=True)
          (relu): ReLU(inplace=True)
          (conv2): Conv2d(472, 512, kernel_size=(3, 3), stride=(1, 1), padding=(1, 1), bias=False)
          (bn2): BatchNorm2d(512, eps=1e-05, momentum=0.1, affine=True, track_running_stats=True)
          (downsample): Sequential(
            (0): Conv2d(472, 512, kernel_size=(1, 1), stride=(2, 2), bias=False)
            (1): BatchNorm2d(512, eps=1e-05, momentum=0.1, affine=True, track_running_stats=True)
          )
        )
      )
    )
    (1): PAIModulePyThread(
      (layerArray): ModuleList(
        (0): BasicBlock(
          (conv1): Conv2d(512, 472, kernel_size=(3, 3), stride=(1, 1), padding=(1, 1), bias=False)
          (bn1): BatchNorm2d(472, eps=1e-05, momentum=0.1, affine=True, track_running_stats=True)
          (relu): ReLU(inplace=True)
          (conv2): Conv2d(472, 512, kernel_size=(3, 3), stride=(1, 1), padding=(1, 1), bias=False)
          (bn2): BatchNorm2d(512, eps=1e-05, momentum=0.1, affine=True, track_running_stats=True)
        )
      )
    )
  )
  (avgpool): AdaptiveAvgPool2d(output_size=(1, 1))
  (fc): PAIModulePyThread(
    (layerArray): ModuleList(
      (0): Linear(in_features=512, out_features=1000, bias=True)
    )
  )
)
Training the model after pruning

---------------Epoch number: 0 ---Train accuracy: 90.45301418439716 ----Test accuracy: 87.52659574468085 --------------

---------------Epoch number: 1 ---Train accuracy: 90.43794326241135 ----Test accuracy: 86.13829787234043 --------------

---------------Epoch number: 2 ---Train accuracy: 90.30053191489361 ----Test accuracy: 87.96808510638297 --------------
…
layer1.0.layerArray.0.conv1
layer1.1.layerArray.0.conv1
layer2.0.layerArray.0.conv1
layer2.1.layerArray.0.conv1
layer3.0.layerArray.0.conv1
layer3.1.layerArray.0.conv1
layer4.0.layerArray.0.conv1
layer4.1.layerArray.0.conv1
Length of layer bounds  8
selected  UNIMP indices  [[33], [26], [36, 101], [48, 112], [43, 146, 65, 130], [23, 212, 194, 221], [242, 456, 240, 74, 277, 233, 101, 121], [37, 194, 449, 52, 96, 257, 299, 445]]
The length of indices is  8
58
58
116
116
232
232
464
464
ResNet(
  (conv1): PAIModulePyThread(
    (layerArray): ModuleList(
      (0): PBSequential(
        (model): Sequential(
          (0): Conv2d(3, 64, kernel_size=(7, 7), stride=(2, 2), padding=(3, 3), bias=False)
          (1): BatchNorm2d(64, eps=1e-05, momentum=0.1, affine=True, track_running_stats=True)
        )
      )
    )
  )
  (relu): ReLU(inplace=True)
  (maxpool): MaxPool2d(kernel_size=3, stride=2, padding=1, dilation=1, ceil_mode=False)
  (layer1): Sequential(
    (0): PAIModulePyThread(
      (layerArray): ModuleList(
        (0): BasicBlock(
          (conv1): Conv2d(64, 58, kernel_size=(3, 3), stride=(1, 1), padding=(1, 1), bias=False)
          (bn1): BatchNorm2d(58, eps=1e-05, momentum=0.1, affine=True, track_running_stats=True)
          (relu): ReLU(inplace=True)
          (conv2): Conv2d(58, 64, kernel_size=(3, 3), stride=(1, 1), padding=(1, 1), bias=False)
          (bn2): BatchNorm2d(64, eps=1e-05, momentum=0.1, affine=True, track_running_stats=True)
        )
      )
    )
    (1): PAIModulePyThread(
      (layerArray): ModuleList(
        (0): BasicBlock(
          (conv1): Conv2d(64, 58, kernel_size=(3, 3), stride=(1, 1), padding=(1, 1), bias=False)
          (bn1): BatchNorm2d(58, eps=1e-05, momentum=0.1, affine=True, track_running_stats=True)
          (relu): ReLU(inplace=True)
          (conv2): Conv2d(58, 64, kernel_size=(3, 3), stride=(1, 1), padding=(1, 1), bias=False)
          (bn2): BatchNorm2d(64, eps=1e-05, momentum=0.1, affine=True, track_running_stats=True)
        )
      )
    )
  )
  (layer2): Sequential(
    (0): PAIModulePyThread(
      (layerArray): ModuleList(
        (0): BasicBlock(
          (conv1): Conv2d(64, 116, kernel_size=(3, 3), stride=(2, 2), padding=(1, 1), bias=False)
          (bn1): BatchNorm2d(116, eps=1e-05, momentum=0.1, affine=True, track_running_stats=True)
          (relu): ReLU(inplace=True)
          (conv2): Conv2d(116, 128, kernel_size=(3, 3), stride=(1, 1), padding=(1, 1), bias=False)
          (bn2): BatchNorm2d(128, eps=1e-05, momentum=0.1, affine=True, track_running_stats=True)
          (downsample): Sequential(
            (0): Conv2d(116, 128, kernel_size=(1, 1), stride=(2, 2), bias=False)
            (1): BatchNorm2d(128, eps=1e-05, momentum=0.1, affine=True, track_running_stats=True)
          )
        )
      )
    )
    (1): PAIModulePyThread(
      (layerArray): ModuleList(
        (0): BasicBlock(
          (conv1): Conv2d(128, 116, kernel_size=(3, 3), stride=(1, 1), padding=(1, 1), bias=False)
          (bn1): BatchNorm2d(116, eps=1e-05, momentum=0.1, affine=True, track_running_stats=True)
          (relu): ReLU(inplace=True)
          (conv2): Conv2d(116, 128, kernel_size=(3, 3), stride=(1, 1), padding=(1, 1), bias=False)
          (bn2): BatchNorm2d(128, eps=1e-05, momentum=0.1, affine=True, track_running_stats=True)
        )
      )
    )
  )
  (layer3): Sequential(
    (0): PAIModulePyThread(
      (layerArray): ModuleList(
        (0): BasicBlock(
          (conv1): Conv2d(128, 232, kernel_size=(3, 3), stride=(2, 2), padding=(1, 1), bias=False)
          (bn1): BatchNorm2d(232, eps=1e-05, momentum=0.1, affine=True, track_running_stats=True)
          (relu): ReLU(inplace=True)
          (conv2): Conv2d(232, 256, kernel_size=(3, 3), stride=(1, 1), padding=(1, 1), bias=False)
          (bn2): BatchNorm2d(256, eps=1e-05, momentum=0.1, affine=True, track_running_stats=True)
          (downsample): Sequential(
            (0): Conv2d(232, 256, kernel_size=(1, 1), stride=(2, 2), bias=False)
            (1): BatchNorm2d(256, eps=1e-05, momentum=0.1, affine=True, track_running_stats=True)
          )
        )
      )
    )
    (1): PAIModulePyThread(
      (layerArray): ModuleList(
        (0): BasicBlock(
          (conv1): Conv2d(256, 232, kernel_size=(3, 3), stride=(1, 1), padding=(1, 1), bias=False)
          (bn1): BatchNorm2d(232, eps=1e-05, momentum=0.1, affine=True, track_running_stats=True)
          (relu): ReLU(inplace=True)
          (conv2): Conv2d(232, 256, kernel_size=(3, 3), stride=(1, 1), padding=(1, 1), bias=False)
          (bn2): BatchNorm2d(256, eps=1e-05, momentum=0.1, affine=True, track_running_stats=True)
        )
      )
    )
  )
  (layer4): Sequential(
    (0): PAIModulePyThread(
      (layerArray): ModuleList(
        (0): BasicBlock(
          (conv1): Conv2d(256, 464, kernel_size=(3, 3), stride=(2, 2), padding=(1, 1), bias=False)
          (bn1): BatchNorm2d(464, eps=1e-05, momentum=0.1, affine=True, track_running_stats=True)
          (relu): ReLU(inplace=True)
          (conv2): Conv2d(464, 512, kernel_size=(3, 3), stride=(1, 1), padding=(1, 1), bias=False)
          (bn2): BatchNorm2d(512, eps=1e-05, momentum=0.1, affine=True, track_running_stats=True)
          (downsample): Sequential(
            (0): Conv2d(464, 512, kernel_size=(1, 1), stride=(2, 2), bias=False)
            (1): BatchNorm2d(512, eps=1e-05, momentum=0.1, affine=True, track_running_stats=True)
          )
        )
      )
    )
    (1): PAIModulePyThread(
      (layerArray): ModuleList(
        (0): BasicBlock(
          (conv1): Conv2d(512, 464, kernel_size=(3, 3), stride=(1, 1), padding=(1, 1), bias=False)
          (bn1): BatchNorm2d(464, eps=1e-05, momentum=0.1, affine=True, track_running_stats=True)
          (relu): ReLU(inplace=True)
          (conv2): Conv2d(464, 512, kernel_size=(3, 3), stride=(1, 1), padding=(1, 1), bias=False)
          (bn2): BatchNorm2d(512, eps=1e-05, momentum=0.1, affine=True, track_running_stats=True)
        )
      )
    )
  )
  (avgpool): AdaptiveAvgPool2d(output_size=(1, 1))
  (fc): PAIModulePyThread(
    (layerArray): ModuleList(
      (0): Linear(in_features=512, out_features=1000, bias=True)
    )
  )
)
Training the model after pruning

---------------Epoch number: 0 ---Train accuracy: 89.9459219858156 ----Test accuracy: 87.83510638297872 --------------

---------------Epoch number: 1 ---Train accuracy: 90.18262411347517 ----Test accuracy: 86.5 --------------

---------------Epoch number: 2 ---Train accuracy: 90.45212765957447 ----Test accuracy: 87.70744680851064 --------------
…
layer1.0.layerArray.0.conv1
layer1.1.layerArray.0.conv1
layer2.0.layerArray.0.conv1
layer2.1.layerArray.0.conv1
layer3.0.layerArray.0.conv1
layer3.1.layerArray.0.conv1
layer4.0.layerArray.0.conv1
layer4.1.layerArray.0.conv1
Length of layer bounds  8
selected  UNIMP indices  [[39], [11], [68, 76], [94, 33], [164, 108, 75, 183], [140, 212, 229, 135], [208, 139, 28, 282, 10, 185, 286, 249], [75, 329, 111, 344, 287, 193, 202, 48]]
The length of indices is  8
57
57
114
114
228
228
456
456
ResNet(
  (conv1): PAIModulePyThread(
    (layerArray): ModuleList(
      (0): PBSequential(
        (model): Sequential(
          (0): Conv2d(3, 64, kernel_size=(7, 7), stride=(2, 2), padding=(3, 3), bias=False)
          (1): BatchNorm2d(64, eps=1e-05, momentum=0.1, affine=True, track_running_stats=True)
        )
      )
    )
  )
  (relu): ReLU(inplace=True)
  (maxpool): MaxPool2d(kernel_size=3, stride=2, padding=1, dilation=1, ceil_mode=False)
  (layer1): Sequential(
    (0): PAIModulePyThread(
      (layerArray): ModuleList(
        (0): BasicBlock(
          (conv1): Conv2d(64, 57, kernel_size=(3, 3), stride=(1, 1), padding=(1, 1), bias=False)
          (bn1): BatchNorm2d(57, eps=1e-05, momentum=0.1, affine=True, track_running_stats=True)
          (relu): ReLU(inplace=True)
          (conv2): Conv2d(57, 64, kernel_size=(3, 3), stride=(1, 1), padding=(1, 1), bias=False)
          (bn2): BatchNorm2d(64, eps=1e-05, momentum=0.1, affine=True, track_running_stats=True)
        )
      )
    )
    (1): PAIModulePyThread(
      (layerArray): ModuleList(
        (0): BasicBlock(
          (conv1): Conv2d(64, 57, kernel_size=(3, 3), stride=(1, 1), padding=(1, 1), bias=False)
          (bn1): BatchNorm2d(57, eps=1e-05, momentum=0.1, affine=True, track_running_stats=True)
          (relu): ReLU(inplace=True)
          (conv2): Conv2d(57, 64, kernel_size=(3, 3), stride=(1, 1), padding=(1, 1), bias=False)
          (bn2): BatchNorm2d(64, eps=1e-05, momentum=0.1, affine=True, track_running_stats=True)
        )
      )
    )
  )
  (layer2): Sequential(
    (0): PAIModulePyThread(
      (layerArray): ModuleList(
        (0): BasicBlock(
          (conv1): Conv2d(64, 114, kernel_size=(3, 3), stride=(2, 2), padding=(1, 1), bias=False)
          (bn1): BatchNorm2d(114, eps=1e-05, momentum=0.1, affine=True, track_running_stats=True)
          (relu): ReLU(inplace=True)
          (conv2): Conv2d(114, 128, kernel_size=(3, 3), stride=(1, 1), padding=(1, 1), bias=False)
          (bn2): BatchNorm2d(128, eps=1e-05, momentum=0.1, affine=True, track_running_stats=True)
          (downsample): Sequential(
            (0): Conv2d(114, 128, kernel_size=(1, 1), stride=(2, 2), bias=False)
            (1): BatchNorm2d(128, eps=1e-05, momentum=0.1, affine=True, track_running_stats=True)
          )
        )
      )
    )
    (1): PAIModulePyThread(
      (layerArray): ModuleList(
        (0): BasicBlock(
          (conv1): Conv2d(128, 114, kernel_size=(3, 3), stride=(1, 1), padding=(1, 1), bias=False)
          (bn1): BatchNorm2d(114, eps=1e-05, momentum=0.1, affine=True, track_running_stats=True)
          (relu): ReLU(inplace=True)
          (conv2): Conv2d(114, 128, kernel_size=(3, 3), stride=(1, 1), padding=(1, 1), bias=False)
          (bn2): BatchNorm2d(128, eps=1e-05, momentum=0.1, affine=True, track_running_stats=True)
        )
      )
    )
  )
  (layer3): Sequential(
    (0): PAIModulePyThread(
      (layerArray): ModuleList(
        (0): BasicBlock(
          (conv1): Conv2d(128, 228, kernel_size=(3, 3), stride=(2, 2), padding=(1, 1), bias=False)
          (bn1): BatchNorm2d(228, eps=1e-05, momentum=0.1, affine=True, track_running_stats=True)
          (relu): ReLU(inplace=True)
          (conv2): Conv2d(228, 256, kernel_size=(3, 3), stride=(1, 1), padding=(1, 1), bias=False)
          (bn2): BatchNorm2d(256, eps=1e-05, momentum=0.1, affine=True, track_running_stats=True)
          (downsample): Sequential(
            (0): Conv2d(228, 256, kernel_size=(1, 1), stride=(2, 2), bias=False)
            (1): BatchNorm2d(256, eps=1e-05, momentum=0.1, affine=True, track_running_stats=True)
          )
        )
      )
    )
    (1): PAIModulePyThread(
      (layerArray): ModuleList(
        (0): BasicBlock(
          (conv1): Conv2d(256, 228, kernel_size=(3, 3), stride=(1, 1), padding=(1, 1), bias=False)
          (bn1): BatchNorm2d(228, eps=1e-05, momentum=0.1, affine=True, track_running_stats=True)
          (relu): ReLU(inplace=True)
          (conv2): Conv2d(228, 256, kernel_size=(3, 3), stride=(1, 1), padding=(1, 1), bias=False)
          (bn2): BatchNorm2d(256, eps=1e-05, momentum=0.1, affine=True, track_running_stats=True)
        )
      )
    )
  )
  (layer4): Sequential(
    (0): PAIModulePyThread(
      (layerArray): ModuleList(
        (0): BasicBlock(
          (conv1): Conv2d(256, 456, kernel_size=(3, 3), stride=(2, 2), padding=(1, 1), bias=False)
          (bn1): BatchNorm2d(456, eps=1e-05, momentum=0.1, affine=True, track_running_stats=True)
          (relu): ReLU(inplace=True)
          (conv2): Conv2d(456, 512, kernel_size=(3, 3), stride=(1, 1), padding=(1, 1), bias=False)
          (bn2): BatchNorm2d(512, eps=1e-05, momentum=0.1, affine=True, track_running_stats=True)
          (downsample): Sequential(
            (0): Conv2d(456, 512, kernel_size=(1, 1), stride=(2, 2), bias=False)
            (1): BatchNorm2d(512, eps=1e-05, momentum=0.1, affine=True, track_running_stats=True)
          )
        )
      )
    )
    (1): PAIModulePyThread(
      (layerArray): ModuleList(
        (0): BasicBlock(
          (conv1): Conv2d(512, 456, kernel_size=(3, 3), stride=(1, 1), padding=(1, 1), bias=False)
          (bn1): BatchNorm2d(456, eps=1e-05, momentum=0.1, affine=True, track_running_stats=True)
          (relu): ReLU(inplace=True)
          (conv2): Conv2d(456, 512, kernel_size=(3, 3), stride=(1, 1), padding=(1, 1), bias=False)
          (bn2): BatchNorm2d(512, eps=1e-05, momentum=0.1, affine=True, track_running_stats=True)
        )
      )
    )
  )
  (avgpool): AdaptiveAvgPool2d(output_size=(1, 1))
  (fc): PAIModulePyThread(
    (layerArray): ModuleList(
      (0): Linear(in_features=512, out_features=1000, bias=True)
    )
  )
)
Training the model after pruning

---------------Epoch number: 0 ---Train accuracy: 90.8581560283688 ----Test accuracy: 88.14893617021276 --------------

---------------Epoch number: 1 ---Train accuracy: 90.74024822695036 ----Test accuracy: 88.36702127659575 --------------

---------------Epoch number: 2 ---Train accuracy: 90.91578014184397 ----Test accuracy: 88.55851063829788 --------------
…
layer1.0.layerArray.0.conv1
layer1.1.layerArray.0.conv1
layer2.0.layerArray.0.conv1
layer2.1.layerArray.0.conv1
layer3.0.layerArray.0.conv1
layer3.1.layerArray.0.conv1
layer4.0.layerArray.0.conv1
layer4.1.layerArray.0.conv1
Length of layer bounds  8
selected  UNIMP indices  [[14], [46], [44, 7], [16, 44], [188, 33, 41, 137], [107, 36, 113, 224], [335, 47, 101, 21, 447, 304, 233, 322], [315, 446, 137, 192, 202, 125, 219, 416]]
The length of indices is  8
56
56
112
112
224
224
448
448
ResNet(
  (conv1): PAIModulePyThread(
    (layerArray): ModuleList(
      (0): PBSequential(
        (model): Sequential(
          (0): Conv2d(3, 64, kernel_size=(7, 7), stride=(2, 2), padding=(3, 3), bias=False)
          (1): BatchNorm2d(64, eps=1e-05, momentum=0.1, affine=True, track_running_stats=True)
        )
      )
    )
  )
  (relu): ReLU(inplace=True)
  (maxpool): MaxPool2d(kernel_size=3, stride=2, padding=1, dilation=1, ceil_mode=False)
  (layer1): Sequential(
    (0): PAIModulePyThread(
      (layerArray): ModuleList(
        (0): BasicBlock(
          (conv1): Conv2d(64, 56, kernel_size=(3, 3), stride=(1, 1), padding=(1, 1), bias=False)
          (bn1): BatchNorm2d(56, eps=1e-05, momentum=0.1, affine=True, track_running_stats=True)
          (relu): ReLU(inplace=True)
          (conv2): Conv2d(56, 64, kernel_size=(3, 3), stride=(1, 1), padding=(1, 1), bias=False)
          (bn2): BatchNorm2d(64, eps=1e-05, momentum=0.1, affine=True, track_running_stats=True)
        )
      )
    )
    (1): PAIModulePyThread(
      (layerArray): ModuleList(
        (0): BasicBlock(
          (conv1): Conv2d(64, 56, kernel_size=(3, 3), stride=(1, 1), padding=(1, 1), bias=False)
          (bn1): BatchNorm2d(56, eps=1e-05, momentum=0.1, affine=True, track_running_stats=True)
          (relu): ReLU(inplace=True)
          (conv2): Conv2d(56, 64, kernel_size=(3, 3), stride=(1, 1), padding=(1, 1), bias=False)
          (bn2): BatchNorm2d(64, eps=1e-05, momentum=0.1, affine=True, track_running_stats=True)
        )
      )
    )
  )
  (layer2): Sequential(
    (0): PAIModulePyThread(
      (layerArray): ModuleList(
        (0): BasicBlock(
          (conv1): Conv2d(64, 112, kernel_size=(3, 3), stride=(2, 2), padding=(1, 1), bias=False)
          (bn1): BatchNorm2d(112, eps=1e-05, momentum=0.1, affine=True, track_running_stats=True)
          (relu): ReLU(inplace=True)
          (conv2): Conv2d(112, 128, kernel_size=(3, 3), stride=(1, 1), padding=(1, 1), bias=False)
          (bn2): BatchNorm2d(128, eps=1e-05, momentum=0.1, affine=True, track_running_stats=True)
          (downsample): Sequential(
            (0): Conv2d(112, 128, kernel_size=(1, 1), stride=(2, 2), bias=False)
            (1): BatchNorm2d(128, eps=1e-05, momentum=0.1, affine=True, track_running_stats=True)
          )
        )
      )
    )
    (1): PAIModulePyThread(
      (layerArray): ModuleList(
        (0): BasicBlock(
          (conv1): Conv2d(128, 112, kernel_size=(3, 3), stride=(1, 1), padding=(1, 1), bias=False)
          (bn1): BatchNorm2d(112, eps=1e-05, momentum=0.1, affine=True, track_running_stats=True)
          (relu): ReLU(inplace=True)
          (conv2): Conv2d(112, 128, kernel_size=(3, 3), stride=(1, 1), padding=(1, 1), bias=False)
          (bn2): BatchNorm2d(128, eps=1e-05, momentum=0.1, affine=True, track_running_stats=True)
        )
      )
    )
  )
  (layer3): Sequential(
    (0): PAIModulePyThread(
      (layerArray): ModuleList(
        (0): BasicBlock(
          (conv1): Conv2d(128, 224, kernel_size=(3, 3), stride=(2, 2), padding=(1, 1), bias=False)
          (bn1): BatchNorm2d(224, eps=1e-05, momentum=0.1, affine=True, track_running_stats=True)
          (relu): ReLU(inplace=True)
          (conv2): Conv2d(224, 256, kernel_size=(3, 3), stride=(1, 1), padding=(1, 1), bias=False)
          (bn2): BatchNorm2d(256, eps=1e-05, momentum=0.1, affine=True, track_running_stats=True)
          (downsample): Sequential(
            (0): Conv2d(224, 256, kernel_size=(1, 1), stride=(2, 2), bias=False)
            (1): BatchNorm2d(256, eps=1e-05, momentum=0.1, affine=True, track_running_stats=True)
          )
        )
      )
    )
    (1): PAIModulePyThread(
      (layerArray): ModuleList(
        (0): BasicBlock(
          (conv1): Conv2d(256, 224, kernel_size=(3, 3), stride=(1, 1), padding=(1, 1), bias=False)
          (bn1): BatchNorm2d(224, eps=1e-05, momentum=0.1, affine=True, track_running_stats=True)
          (relu): ReLU(inplace=True)
          (conv2): Conv2d(224, 256, kernel_size=(3, 3), stride=(1, 1), padding=(1, 1), bias=False)
          (bn2): BatchNorm2d(256, eps=1e-05, momentum=0.1, affine=True, track_running_stats=True)
        )
      )
    )
  )
  (layer4): Sequential(
    (0): PAIModulePyThread(
      (layerArray): ModuleList(
        (0): BasicBlock(
          (conv1): Conv2d(256, 448, kernel_size=(3, 3), stride=(2, 2), padding=(1, 1), bias=False)
          (bn1): BatchNorm2d(448, eps=1e-05, momentum=0.1, affine=True, track_running_stats=True)
          (relu): ReLU(inplace=True)
          (conv2): Conv2d(448, 512, kernel_size=(3, 3), stride=(1, 1), padding=(1, 1), bias=False)
          (bn2): BatchNorm2d(512, eps=1e-05, momentum=0.1, affine=True, track_running_stats=True)
          (downsample): Sequential(
            (0): Conv2d(448, 512, kernel_size=(1, 1), stride=(2, 2), bias=False)
            (1): BatchNorm2d(512, eps=1e-05, momentum=0.1, affine=True, track_running_stats=True)
          )
        )
      )
    )
    (1): PAIModulePyThread(
      (layerArray): ModuleList(
        (0): BasicBlock(
          (conv1): Conv2d(512, 448, kernel_size=(3, 3), stride=(1, 1), padding=(1, 1), bias=False)
          (bn1): BatchNorm2d(448, eps=1e-05, momentum=0.1, affine=True, track_running_stats=True)
          (relu): ReLU(inplace=True)
          (conv2): Conv2d(448, 512, kernel_size=(3, 3), stride=(1, 1), padding=(1, 1), bias=False)
          (bn2): BatchNorm2d(512, eps=1e-05, momentum=0.1, affine=True, track_running_stats=True)
        )
      )
    )
  )
  (avgpool): AdaptiveAvgPool2d(output_size=(1, 1))
  (fc): PAIModulePyThread(
    (layerArray): ModuleList(
      (0): Linear(in_features=512, out_features=1000, bias=True)
    )
  )
)
Training the model after pruning

---------------Epoch number: 0 ---Train accuracy: 90.8918439716312 ----Test accuracy: 87.62234042553192 --------------

---------------Epoch number: 1 ---Train accuracy: 90.87943262411348 ----Test accuracy: 87.40957446808511 --------------

---------------Epoch number: 2 ---Train accuracy: 90.86524822695036 ----Test accuracy: 87.42553191489361 --------------
…
layer1.0.layerArray.0.conv1
layer1.1.layerArray.0.conv1
layer2.0.layerArray.0.conv1
layer2.1.layerArray.0.conv1
layer3.0.layerArray.0.conv1
layer3.1.layerArray.0.conv1
layer4.0.layerArray.0.conv1
layer4.1.layerArray.0.conv1
Length of layer bounds  8
selected  UNIMP indices  [[28], [6], [12, 58], [91, 52], [140, 53, 175, 76], [119, 8, 66, 138], [299, 278, 230, 90, 6, 56, 288, 358], [156, 262, 324, 259, 362, 213, 138, 235]]
The length of indices is  8
55
55
110
110
220
220
440
440
ResNet(
  (conv1): PAIModulePyThread(
    (layerArray): ModuleList(
      (0): PBSequential(
        (model): Sequential(
          (0): Conv2d(3, 64, kernel_size=(7, 7), stride=(2, 2), padding=(3, 3), bias=False)
          (1): BatchNorm2d(64, eps=1e-05, momentum=0.1, affine=True, track_running_stats=True)
        )
      )
    )
  )
  (relu): ReLU(inplace=True)
  (maxpool): MaxPool2d(kernel_size=3, stride=2, padding=1, dilation=1, ceil_mode=False)
  (layer1): Sequential(
    (0): PAIModulePyThread(
      (layerArray): ModuleList(
        (0): BasicBlock(
          (conv1): Conv2d(64, 55, kernel_size=(3, 3), stride=(1, 1), padding=(1, 1), bias=False)
          (bn1): BatchNorm2d(55, eps=1e-05, momentum=0.1, affine=True, track_running_stats=True)
          (relu): ReLU(inplace=True)
          (conv2): Conv2d(55, 64, kernel_size=(3, 3), stride=(1, 1), padding=(1, 1), bias=False)
          (bn2): BatchNorm2d(64, eps=1e-05, momentum=0.1, affine=True, track_running_stats=True)
        )
      )
    )
    (1): PAIModulePyThread(
      (layerArray): ModuleList(
        (0): BasicBlock(
          (conv1): Conv2d(64, 55, kernel_size=(3, 3), stride=(1, 1), padding=(1, 1), bias=False)
          (bn1): BatchNorm2d(55, eps=1e-05, momentum=0.1, affine=True, track_running_stats=True)
          (relu): ReLU(inplace=True)
          (conv2): Conv2d(55, 64, kernel_size=(3, 3), stride=(1, 1), padding=(1, 1), bias=False)
          (bn2): BatchNorm2d(64, eps=1e-05, momentum=0.1, affine=True, track_running_stats=True)
        )
      )
    )
  )
  (layer2): Sequential(
    (0): PAIModulePyThread(
      (layerArray): ModuleList(
        (0): BasicBlock(
          (conv1): Conv2d(64, 110, kernel_size=(3, 3), stride=(2, 2), padding=(1, 1), bias=False)
          (bn1): BatchNorm2d(110, eps=1e-05, momentum=0.1, affine=True, track_running_stats=True)
          (relu): ReLU(inplace=True)
          (conv2): Conv2d(110, 128, kernel_size=(3, 3), stride=(1, 1), padding=(1, 1), bias=False)
          (bn2): BatchNorm2d(128, eps=1e-05, momentum=0.1, affine=True, track_running_stats=True)
          (downsample): Sequential(
            (0): Conv2d(110, 128, kernel_size=(1, 1), stride=(2, 2), bias=False)
            (1): BatchNorm2d(128, eps=1e-05, momentum=0.1, affine=True, track_running_stats=True)
          )
        )
      )
    )
    (1): PAIModulePyThread(
      (layerArray): ModuleList(
        (0): BasicBlock(
          (conv1): Conv2d(128, 110, kernel_size=(3, 3), stride=(1, 1), padding=(1, 1), bias=False)
          (bn1): BatchNorm2d(110, eps=1e-05, momentum=0.1, affine=True, track_running_stats=True)
          (relu): ReLU(inplace=True)
          (conv2): Conv2d(110, 128, kernel_size=(3, 3), stride=(1, 1), padding=(1, 1), bias=False)
          (bn2): BatchNorm2d(128, eps=1e-05, momentum=0.1, affine=True, track_running_stats=True)
        )
      )
    )
  )
  (layer3): Sequential(
    (0): PAIModulePyThread(
      (layerArray): ModuleList(
        (0): BasicBlock(
          (conv1): Conv2d(128, 220, kernel_size=(3, 3), stride=(2, 2), padding=(1, 1), bias=False)
          (bn1): BatchNorm2d(220, eps=1e-05, momentum=0.1, affine=True, track_running_stats=True)
          (relu): ReLU(inplace=True)
          (conv2): Conv2d(220, 256, kernel_size=(3, 3), stride=(1, 1), padding=(1, 1), bias=False)
          (bn2): BatchNorm2d(256, eps=1e-05, momentum=0.1, affine=True, track_running_stats=True)
          (downsample): Sequential(
            (0): Conv2d(220, 256, kernel_size=(1, 1), stride=(2, 2), bias=False)
            (1): BatchNorm2d(256, eps=1e-05, momentum=0.1, affine=True, track_running_stats=True)
          )
        )
      )
    )
    (1): PAIModulePyThread(
      (layerArray): ModuleList(
        (0): BasicBlock(
          (conv1): Conv2d(256, 220, kernel_size=(3, 3), stride=(1, 1), padding=(1, 1), bias=False)
          (bn1): BatchNorm2d(220, eps=1e-05, momentum=0.1, affine=True, track_running_stats=True)
          (relu): ReLU(inplace=True)
          (conv2): Conv2d(220, 256, kernel_size=(3, 3), stride=(1, 1), padding=(1, 1), bias=False)
          (bn2): BatchNorm2d(256, eps=1e-05, momentum=0.1, affine=True, track_running_stats=True)
        )
      )
    )
  )
  (layer4): Sequential(
    (0): PAIModulePyThread(
      (layerArray): ModuleList(
        (0): BasicBlock(
          (conv1): Conv2d(256, 440, kernel_size=(3, 3), stride=(2, 2), padding=(1, 1), bias=False)
          (bn1): BatchNorm2d(440, eps=1e-05, momentum=0.1, affine=True, track_running_stats=True)
          (relu): ReLU(inplace=True)
          (conv2): Conv2d(440, 512, kernel_size=(3, 3), stride=(1, 1), padding=(1, 1), bias=False)
          (bn2): BatchNorm2d(512, eps=1e-05, momentum=0.1, affine=True, track_running_stats=True)
          (downsample): Sequential(
            (0): Conv2d(440, 512, kernel_size=(1, 1), stride=(2, 2), bias=False)
            (1): BatchNorm2d(512, eps=1e-05, momentum=0.1, affine=True, track_running_stats=True)
          )
        )
      )
    )
    (1): PAIModulePyThread(
      (layerArray): ModuleList(
        (0): BasicBlock(
          (conv1): Conv2d(512, 440, kernel_size=(3, 3), stride=(1, 1), padding=(1, 1), bias=False)
          (bn1): BatchNorm2d(440, eps=1e-05, momentum=0.1, affine=True, track_running_stats=True)
          (relu): ReLU(inplace=True)
          (conv2): Conv2d(440, 512, kernel_size=(3, 3), stride=(1, 1), padding=(1, 1), bias=False)
          (bn2): BatchNorm2d(512, eps=1e-05, momentum=0.1, affine=True, track_running_stats=True)
        )
      )
    )
  )
  (avgpool): AdaptiveAvgPool2d(output_size=(1, 1))
  (fc): PAIModulePyThread(
    (layerArray): ModuleList(
      (0): Linear(in_features=512, out_features=1000, bias=True)
    )
  )
)
Training the model after pruning

---------------Epoch number: 0 ---Train accuracy: 89.21631205673759 ----Test accuracy: 86.22872340425532 --------------

---------------Epoch number: 1 ---Train accuracy: 89.96897163120568 ----Test accuracy: 85.90425531914893 --------------

---------------Epoch number: 2 ---Train accuracy: 90.38386524822695 ----Test accuracy: 87.08510638297872 --------------
…
layer1.0.layerArray.0.conv1
layer1.1.layerArray.0.conv1
layer2.0.layerArray.0.conv1
layer2.1.layerArray.0.conv1
layer3.0.layerArray.0.conv1
layer3.1.layerArray.0.conv1
layer4.0.layerArray.0.conv1
layer4.1.layerArray.0.conv1
Length of layer bounds  8
selected  UNIMP indices  [[1], [45], [43, 12], [6, 96], [119, 62, 160, 50], [173, 63, 98, 43], [318, 237, 354, 269, 63, 206, 201, 232], [256, 166, 137, 258, 7, 205, 395, 191]]
The length of indices is  8
54
54
108
108
216
216
432
432
ResNet(
  (conv1): PAIModulePyThread(
    (layerArray): ModuleList(
      (0): PBSequential(
        (model): Sequential(
          (0): Conv2d(3, 64, kernel_size=(7, 7), stride=(2, 2), padding=(3, 3), bias=False)
          (1): BatchNorm2d(64, eps=1e-05, momentum=0.1, affine=True, track_running_stats=True)
        )
      )
    )
  )
  (relu): ReLU(inplace=True)
  (maxpool): MaxPool2d(kernel_size=3, stride=2, padding=1, dilation=1, ceil_mode=False)
  (layer1): Sequential(
    (0): PAIModulePyThread(
      (layerArray): ModuleList(
        (0): BasicBlock(
          (conv1): Conv2d(64, 54, kernel_size=(3, 3), stride=(1, 1), padding=(1, 1), bias=False)
          (bn1): BatchNorm2d(54, eps=1e-05, momentum=0.1, affine=True, track_running_stats=True)
          (relu): ReLU(inplace=True)
          (conv2): Conv2d(54, 64, kernel_size=(3, 3), stride=(1, 1), padding=(1, 1), bias=False)
          (bn2): BatchNorm2d(64, eps=1e-05, momentum=0.1, affine=True, track_running_stats=True)
        )
      )
    )
    (1): PAIModulePyThread(
      (layerArray): ModuleList(
        (0): BasicBlock(
          (conv1): Conv2d(64, 54, kernel_size=(3, 3), stride=(1, 1), padding=(1, 1), bias=False)
          (bn1): BatchNorm2d(54, eps=1e-05, momentum=0.1, affine=True, track_running_stats=True)
          (relu): ReLU(inplace=True)
          (conv2): Conv2d(54, 64, kernel_size=(3, 3), stride=(1, 1), padding=(1, 1), bias=False)
          (bn2): BatchNorm2d(64, eps=1e-05, momentum=0.1, affine=True, track_running_stats=True)
        )
      )
    )
  )
  (layer2): Sequential(
    (0): PAIModulePyThread(
      (layerArray): ModuleList(
        (0): BasicBlock(
          (conv1): Conv2d(64, 108, kernel_size=(3, 3), stride=(2, 2), padding=(1, 1), bias=False)
          (bn1): BatchNorm2d(108, eps=1e-05, momentum=0.1, affine=True, track_running_stats=True)
          (relu): ReLU(inplace=True)
          (conv2): Conv2d(108, 128, kernel_size=(3, 3), stride=(1, 1), padding=(1, 1), bias=False)
          (bn2): BatchNorm2d(128, eps=1e-05, momentum=0.1, affine=True, track_running_stats=True)
          (downsample): Sequential(
            (0): Conv2d(108, 128, kernel_size=(1, 1), stride=(2, 2), bias=False)
            (1): BatchNorm2d(128, eps=1e-05, momentum=0.1, affine=True, track_running_stats=True)
          )
        )
      )
    )
    (1): PAIModulePyThread(
      (layerArray): ModuleList(
        (0): BasicBlock(
          (conv1): Conv2d(128, 108, kernel_size=(3, 3), stride=(1, 1), padding=(1, 1), bias=False)
          (bn1): BatchNorm2d(108, eps=1e-05, momentum=0.1, affine=True, track_running_stats=True)
          (relu): ReLU(inplace=True)
          (conv2): Conv2d(108, 128, kernel_size=(3, 3), stride=(1, 1), padding=(1, 1), bias=False)
          (bn2): BatchNorm2d(128, eps=1e-05, momentum=0.1, affine=True, track_running_stats=True)
        )
      )
    )
  )
  (layer3): Sequential(
    (0): PAIModulePyThread(
      (layerArray): ModuleList(
        (0): BasicBlock(
          (conv1): Conv2d(128, 216, kernel_size=(3, 3), stride=(2, 2), padding=(1, 1), bias=False)
          (bn1): BatchNorm2d(216, eps=1e-05, momentum=0.1, affine=True, track_running_stats=True)
          (relu): ReLU(inplace=True)
          (conv2): Conv2d(216, 256, kernel_size=(3, 3), stride=(1, 1), padding=(1, 1), bias=False)
          (bn2): BatchNorm2d(256, eps=1e-05, momentum=0.1, affine=True, track_running_stats=True)
          (downsample): Sequential(
            (0): Conv2d(216, 256, kernel_size=(1, 1), stride=(2, 2), bias=False)
            (1): BatchNorm2d(256, eps=1e-05, momentum=0.1, affine=True, track_running_stats=True)
          )
        )
      )
    )
    (1): PAIModulePyThread(
      (layerArray): ModuleList(
        (0): BasicBlock(
          (conv1): Conv2d(256, 216, kernel_size=(3, 3), stride=(1, 1), padding=(1, 1), bias=False)
          (bn1): BatchNorm2d(216, eps=1e-05, momentum=0.1, affine=True, track_running_stats=True)
          (relu): ReLU(inplace=True)
          (conv2): Conv2d(216, 256, kernel_size=(3, 3), stride=(1, 1), padding=(1, 1), bias=False)
          (bn2): BatchNorm2d(256, eps=1e-05, momentum=0.1, affine=True, track_running_stats=True)
        )
      )
    )
  )
  (layer4): Sequential(
    (0): PAIModulePyThread(
      (layerArray): ModuleList(
        (0): BasicBlock(
          (conv1): Conv2d(256, 432, kernel_size=(3, 3), stride=(2, 2), padding=(1, 1), bias=False)
          (bn1): BatchNorm2d(432, eps=1e-05, momentum=0.1, affine=True, track_running_stats=True)
          (relu): ReLU(inplace=True)
          (conv2): Conv2d(432, 512, kernel_size=(3, 3), stride=(1, 1), padding=(1, 1), bias=False)
          (bn2): BatchNorm2d(512, eps=1e-05, momentum=0.1, affine=True, track_running_stats=True)
          (downsample): Sequential(
            (0): Conv2d(432, 512, kernel_size=(1, 1), stride=(2, 2), bias=False)
            (1): BatchNorm2d(512, eps=1e-05, momentum=0.1, affine=True, track_running_stats=True)
          )
        )
      )
    )
    (1): PAIModulePyThread(
      (layerArray): ModuleList(
        (0): BasicBlock(
          (conv1): Conv2d(512, 432, kernel_size=(3, 3), stride=(1, 1), padding=(1, 1), bias=False)
          (bn1): BatchNorm2d(432, eps=1e-05, momentum=0.1, affine=True, track_running_stats=True)
          (relu): ReLU(inplace=True)
          (conv2): Conv2d(432, 512, kernel_size=(3, 3), stride=(1, 1), padding=(1, 1), bias=False)
          (bn2): BatchNorm2d(512, eps=1e-05, momentum=0.1, affine=True, track_running_stats=True)
        )
      )
    )
  )
  (avgpool): AdaptiveAvgPool2d(output_size=(1, 1))
  (fc): PAIModulePyThread(
    (layerArray): ModuleList(
      (0): Linear(in_features=512, out_features=1000, bias=True)
    )
  )
)
Training the model after pruning

---------------Epoch number: 0 ---Train accuracy: 90.66489361702128 ----Test accuracy: 88.05851063829788 --------------

---------------Epoch number: 1 ---Train accuracy: 90.70656028368795 ----Test accuracy: 87.68085106382979 --------------

---------------Epoch number: 2 ---Train accuracy: 90.91489361702128 ----Test accuracy: 83.32446808510639 --------------
…
layer1.0.layerArray.0.conv1
layer1.1.layerArray.0.conv1
layer2.0.layerArray.0.conv1
layer2.1.layerArray.0.conv1
layer3.0.layerArray.0.conv1
layer3.1.layerArray.0.conv1
layer4.0.layerArray.0.conv1
layer4.1.layerArray.0.conv1
Length of layer bounds  8
selected  UNIMP indices  [[51], [6], [58, 59], [28, 57], [191, 100, 69, 24], [184, 100, 18, 87], [144, 183, 150, 349, 16, 221, 301, 372], [352, 81, 239, 342, 88, 283, 185, 223]]
The length of indices is  8
53
53
106
106
212
212
424
424
ResNet(
  (conv1): PAIModulePyThread(
    (layerArray): ModuleList(
      (0): PBSequential(
        (model): Sequential(
          (0): Conv2d(3, 64, kernel_size=(7, 7), stride=(2, 2), padding=(3, 3), bias=False)
          (1): BatchNorm2d(64, eps=1e-05, momentum=0.1, affine=True, track_running_stats=True)
        )
      )
    )
  )
  (relu): ReLU(inplace=True)
  (maxpool): MaxPool2d(kernel_size=3, stride=2, padding=1, dilation=1, ceil_mode=False)
  (layer1): Sequential(
    (0): PAIModulePyThread(
      (layerArray): ModuleList(
        (0): BasicBlock(
          (conv1): Conv2d(64, 53, kernel_size=(3, 3), stride=(1, 1), padding=(1, 1), bias=False)
          (bn1): BatchNorm2d(53, eps=1e-05, momentum=0.1, affine=True, track_running_stats=True)
          (relu): ReLU(inplace=True)
          (conv2): Conv2d(53, 64, kernel_size=(3, 3), stride=(1, 1), padding=(1, 1), bias=False)
          (bn2): BatchNorm2d(64, eps=1e-05, momentum=0.1, affine=True, track_running_stats=True)
        )
      )
    )
    (1): PAIModulePyThread(
      (layerArray): ModuleList(
        (0): BasicBlock(
          (conv1): Conv2d(64, 53, kernel_size=(3, 3), stride=(1, 1), padding=(1, 1), bias=False)
          (bn1): BatchNorm2d(53, eps=1e-05, momentum=0.1, affine=True, track_running_stats=True)
          (relu): ReLU(inplace=True)
          (conv2): Conv2d(53, 64, kernel_size=(3, 3), stride=(1, 1), padding=(1, 1), bias=False)
          (bn2): BatchNorm2d(64, eps=1e-05, momentum=0.1, affine=True, track_running_stats=True)
        )
      )
    )
  )
  (layer2): Sequential(
    (0): PAIModulePyThread(
      (layerArray): ModuleList(
        (0): BasicBlock(
          (conv1): Conv2d(64, 106, kernel_size=(3, 3), stride=(2, 2), padding=(1, 1), bias=False)
          (bn1): BatchNorm2d(106, eps=1e-05, momentum=0.1, affine=True, track_running_stats=True)
          (relu): ReLU(inplace=True)
          (conv2): Conv2d(106, 128, kernel_size=(3, 3), stride=(1, 1), padding=(1, 1), bias=False)
          (bn2): BatchNorm2d(128, eps=1e-05, momentum=0.1, affine=True, track_running_stats=True)
          (downsample): Sequential(
            (0): Conv2d(106, 128, kernel_size=(1, 1), stride=(2, 2), bias=False)
            (1): BatchNorm2d(128, eps=1e-05, momentum=0.1, affine=True, track_running_stats=True)
          )
        )
      )
    )
    (1): PAIModulePyThread(
      (layerArray): ModuleList(
        (0): BasicBlock(
          (conv1): Conv2d(128, 106, kernel_size=(3, 3), stride=(1, 1), padding=(1, 1), bias=False)
          (bn1): BatchNorm2d(106, eps=1e-05, momentum=0.1, affine=True, track_running_stats=True)
          (relu): ReLU(inplace=True)
          (conv2): Conv2d(106, 128, kernel_size=(3, 3), stride=(1, 1), padding=(1, 1), bias=False)
          (bn2): BatchNorm2d(128, eps=1e-05, momentum=0.1, affine=True, track_running_stats=True)
        )
      )
    )
  )
  (layer3): Sequential(
    (0): PAIModulePyThread(
      (layerArray): ModuleList(
        (0): BasicBlock(
          (conv1): Conv2d(128, 212, kernel_size=(3, 3), stride=(2, 2), padding=(1, 1), bias=False)
          (bn1): BatchNorm2d(212, eps=1e-05, momentum=0.1, affine=True, track_running_stats=True)
          (relu): ReLU(inplace=True)
          (conv2): Conv2d(212, 256, kernel_size=(3, 3), stride=(1, 1), padding=(1, 1), bias=False)
          (bn2): BatchNorm2d(256, eps=1e-05, momentum=0.1, affine=True, track_running_stats=True)
          (downsample): Sequential(
            (0): Conv2d(212, 256, kernel_size=(1, 1), stride=(2, 2), bias=False)
            (1): BatchNorm2d(256, eps=1e-05, momentum=0.1, affine=True, track_running_stats=True)
          )
        )
      )
    )
    (1): PAIModulePyThread(
      (layerArray): ModuleList(
        (0): BasicBlock(
          (conv1): Conv2d(256, 212, kernel_size=(3, 3), stride=(1, 1), padding=(1, 1), bias=False)
          (bn1): BatchNorm2d(212, eps=1e-05, momentum=0.1, affine=True, track_running_stats=True)
          (relu): ReLU(inplace=True)
          (conv2): Conv2d(212, 256, kernel_size=(3, 3), stride=(1, 1), padding=(1, 1), bias=False)
          (bn2): BatchNorm2d(256, eps=1e-05, momentum=0.1, affine=True, track_running_stats=True)
        )
      )
    )
  )
  (layer4): Sequential(
    (0): PAIModulePyThread(
      (layerArray): ModuleList(
        (0): BasicBlock(
          (conv1): Conv2d(256, 424, kernel_size=(3, 3), stride=(2, 2), padding=(1, 1), bias=False)
          (bn1): BatchNorm2d(424, eps=1e-05, momentum=0.1, affine=True, track_running_stats=True)
          (relu): ReLU(inplace=True)
          (conv2): Conv2d(424, 512, kernel_size=(3, 3), stride=(1, 1), padding=(1, 1), bias=False)
          (bn2): BatchNorm2d(512, eps=1e-05, momentum=0.1, affine=True, track_running_stats=True)
          (downsample): Sequential(
            (0): Conv2d(424, 512, kernel_size=(1, 1), stride=(2, 2), bias=False)
            (1): BatchNorm2d(512, eps=1e-05, momentum=0.1, affine=True, track_running_stats=True)
          )
        )
      )
    )
    (1): PAIModulePyThread(
      (layerArray): ModuleList(
        (0): BasicBlock(
          (conv1): Conv2d(512, 424, kernel_size=(3, 3), stride=(1, 1), padding=(1, 1), bias=False)
          (bn1): BatchNorm2d(424, eps=1e-05, momentum=0.1, affine=True, track_running_stats=True)
          (relu): ReLU(inplace=True)
          (conv2): Conv2d(424, 512, kernel_size=(3, 3), stride=(1, 1), padding=(1, 1), bias=False)
          (bn2): BatchNorm2d(512, eps=1e-05, momentum=0.1, affine=True, track_running_stats=True)
        )
      )
    )
  )
  (avgpool): AdaptiveAvgPool2d(output_size=(1, 1))
  (fc): PAIModulePyThread(
    (layerArray): ModuleList(
      (0): Linear(in_features=512, out_features=1000, bias=True)
    )
  )
)
Training the model after pruning

---------------Epoch number: 0 ---Train accuracy: 91.02127659574468 ----Test accuracy: 87.43617021276596 --------------

---------------Epoch number: 1 ---Train accuracy: 91.07712765957447 ----Test accuracy: 88.07446808510639 --------------

---------------Epoch number: 2 ---Train accuracy: 91.19858156028369 ----Test accuracy: 86.75531914893617 --------------
…
layer1.0.layerArray.0.conv1
layer1.1.layerArray.0.conv1
layer2.0.layerArray.0.conv1
layer2.1.layerArray.0.conv1
layer3.0.layerArray.0.conv1
layer3.1.layerArray.0.conv1
layer4.0.layerArray.0.conv1
layer4.1.layerArray.0.conv1
Length of layer bounds  8
selected  UNIMP indices  [[31], [16], [34, 75], [17, 68], [45, 192, 1, 198], [104, 164, 29, 42], [356, 383, 9, 97, 115, 183, 42, 58], [118, 178, 183, 111, 164, 392, 144, 130]]
The length of indices is  8
52
52
104
104
208
208
416
416
ResNet(
  (conv1): PAIModulePyThread(
    (layerArray): ModuleList(
      (0): PBSequential(
        (model): Sequential(
          (0): Conv2d(3, 64, kernel_size=(7, 7), stride=(2, 2), padding=(3, 3), bias=False)
          (1): BatchNorm2d(64, eps=1e-05, momentum=0.1, affine=True, track_running_stats=True)
        )
      )
    )
  )
  (relu): ReLU(inplace=True)
  (maxpool): MaxPool2d(kernel_size=3, stride=2, padding=1, dilation=1, ceil_mode=False)
  (layer1): Sequential(
    (0): PAIModulePyThread(
      (layerArray): ModuleList(
        (0): BasicBlock(
          (conv1): Conv2d(64, 52, kernel_size=(3, 3), stride=(1, 1), padding=(1, 1), bias=False)
          (bn1): BatchNorm2d(52, eps=1e-05, momentum=0.1, affine=True, track_running_stats=True)
          (relu): ReLU(inplace=True)
          (conv2): Conv2d(52, 64, kernel_size=(3, 3), stride=(1, 1), padding=(1, 1), bias=False)
          (bn2): BatchNorm2d(64, eps=1e-05, momentum=0.1, affine=True, track_running_stats=True)
        )
      )
    )
    (1): PAIModulePyThread(
      (layerArray): ModuleList(
        (0): BasicBlock(
          (conv1): Conv2d(64, 52, kernel_size=(3, 3), stride=(1, 1), padding=(1, 1), bias=False)
          (bn1): BatchNorm2d(52, eps=1e-05, momentum=0.1, affine=True, track_running_stats=True)
          (relu): ReLU(inplace=True)
          (conv2): Conv2d(52, 64, kernel_size=(3, 3), stride=(1, 1), padding=(1, 1), bias=False)
          (bn2): BatchNorm2d(64, eps=1e-05, momentum=0.1, affine=True, track_running_stats=True)
        )
      )
    )
  )
  (layer2): Sequential(
    (0): PAIModulePyThread(
      (layerArray): ModuleList(
        (0): BasicBlock(
          (conv1): Conv2d(64, 104, kernel_size=(3, 3), stride=(2, 2), padding=(1, 1), bias=False)
          (bn1): BatchNorm2d(104, eps=1e-05, momentum=0.1, affine=True, track_running_stats=True)
          (relu): ReLU(inplace=True)
          (conv2): Conv2d(104, 128, kernel_size=(3, 3), stride=(1, 1), padding=(1, 1), bias=False)
          (bn2): BatchNorm2d(128, eps=1e-05, momentum=0.1, affine=True, track_running_stats=True)
          (downsample): Sequential(
            (0): Conv2d(104, 128, kernel_size=(1, 1), stride=(2, 2), bias=False)
            (1): BatchNorm2d(128, eps=1e-05, momentum=0.1, affine=True, track_running_stats=True)
          )
        )
      )
    )
    (1): PAIModulePyThread(
      (layerArray): ModuleList(
        (0): BasicBlock(
          (conv1): Conv2d(128, 104, kernel_size=(3, 3), stride=(1, 1), padding=(1, 1), bias=False)
          (bn1): BatchNorm2d(104, eps=1e-05, momentum=0.1, affine=True, track_running_stats=True)
          (relu): ReLU(inplace=True)
          (conv2): Conv2d(104, 128, kernel_size=(3, 3), stride=(1, 1), padding=(1, 1), bias=False)
          (bn2): BatchNorm2d(128, eps=1e-05, momentum=0.1, affine=True, track_running_stats=True)
        )
      )
    )
  )
  (layer3): Sequential(
    (0): PAIModulePyThread(
      (layerArray): ModuleList(
        (0): BasicBlock(
          (conv1): Conv2d(128, 208, kernel_size=(3, 3), stride=(2, 2), padding=(1, 1), bias=False)
          (bn1): BatchNorm2d(208, eps=1e-05, momentum=0.1, affine=True, track_running_stats=True)
          (relu): ReLU(inplace=True)
          (conv2): Conv2d(208, 256, kernel_size=(3, 3), stride=(1, 1), padding=(1, 1), bias=False)
          (bn2): BatchNorm2d(256, eps=1e-05, momentum=0.1, affine=True, track_running_stats=True)
          (downsample): Sequential(
            (0): Conv2d(208, 256, kernel_size=(1, 1), stride=(2, 2), bias=False)
            (1): BatchNorm2d(256, eps=1e-05, momentum=0.1, affine=True, track_running_stats=True)
          )
        )
      )
    )
    (1): PAIModulePyThread(
      (layerArray): ModuleList(
        (0): BasicBlock(
          (conv1): Conv2d(256, 208, kernel_size=(3, 3), stride=(1, 1), padding=(1, 1), bias=False)
          (bn1): BatchNorm2d(208, eps=1e-05, momentum=0.1, affine=True, track_running_stats=True)
          (relu): ReLU(inplace=True)
          (conv2): Conv2d(208, 256, kernel_size=(3, 3), stride=(1, 1), padding=(1, 1), bias=False)
          (bn2): BatchNorm2d(256, eps=1e-05, momentum=0.1, affine=True, track_running_stats=True)
        )
      )
    )
  )
  (layer4): Sequential(
    (0): PAIModulePyThread(
      (layerArray): ModuleList(
        (0): BasicBlock(
          (conv1): Conv2d(256, 416, kernel_size=(3, 3), stride=(2, 2), padding=(1, 1), bias=False)
          (bn1): BatchNorm2d(416, eps=1e-05, momentum=0.1, affine=True, track_running_stats=True)
          (relu): ReLU(inplace=True)
          (conv2): Conv2d(416, 512, kernel_size=(3, 3), stride=(1, 1), padding=(1, 1), bias=False)
          (bn2): BatchNorm2d(512, eps=1e-05, momentum=0.1, affine=True, track_running_stats=True)
          (downsample): Sequential(
            (0): Conv2d(416, 512, kernel_size=(1, 1), stride=(2, 2), bias=False)
            (1): BatchNorm2d(512, eps=1e-05, momentum=0.1, affine=True, track_running_stats=True)
          )
        )
      )
    )
    (1): PAIModulePyThread(
      (layerArray): ModuleList(
        (0): BasicBlock(
          (conv1): Conv2d(512, 416, kernel_size=(3, 3), stride=(1, 1), padding=(1, 1), bias=False)
          (bn1): BatchNorm2d(416, eps=1e-05, momentum=0.1, affine=True, track_running_stats=True)
          (relu): ReLU(inplace=True)
          (conv2): Conv2d(416, 512, kernel_size=(3, 3), stride=(1, 1), padding=(1, 1), bias=False)
          (bn2): BatchNorm2d(512, eps=1e-05, momentum=0.1, affine=True, track_running_stats=True)
        )
      )
    )
  )
  (avgpool): AdaptiveAvgPool2d(output_size=(1, 1))
  (fc): PAIModulePyThread(
    (layerArray): ModuleList(
      (0): Linear(in_features=512, out_features=1000, bias=True)
    )
  )
)
Training the model after pruning

---------------Epoch number: 0 ---Train accuracy: 91.49202127659575 ----Test accuracy: 87.90425531914893 --------------

---------------Epoch number: 1 ---Train accuracy: 91.27304964539007 ----Test accuracy: 87.54787234042553 --------------

---------------Epoch number: 2 ---Train accuracy: 91.43439716312056 ----Test accuracy: 88.37765957446808 --------------
…
layer1.0.layerArray.0.conv1
layer1.1.layerArray.0.conv1
layer2.0.layerArray.0.conv1
layer2.1.layerArray.0.conv1
layer3.0.layerArray.0.conv1
layer3.1.layerArray.0.conv1
layer4.0.layerArray.0.conv1
layer4.1.layerArray.0.conv1
Length of layer bounds  8
selected  UNIMP indices  [[15], [34], [69, 20], [78, 5], [94, 70, 84, 128], [187, 18, 118, 72], [89, 388, 37, 86, 179, 38, 41, 121], [289, 333, 381, 15, 344, 30, 112, 174]]
The length of indices is  8
51
51
102
102
204
204
408
408
ResNet(
  (conv1): PAIModulePyThread(
    (layerArray): ModuleList(
      (0): PBSequential(
        (model): Sequential(
          (0): Conv2d(3, 64, kernel_size=(7, 7), stride=(2, 2), padding=(3, 3), bias=False)
          (1): BatchNorm2d(64, eps=1e-05, momentum=0.1, affine=True, track_running_stats=True)
        )
      )
    )
  )
  (relu): ReLU(inplace=True)
  (maxpool): MaxPool2d(kernel_size=3, stride=2, padding=1, dilation=1, ceil_mode=False)
  (layer1): Sequential(
    (0): PAIModulePyThread(
      (layerArray): ModuleList(
        (0): BasicBlock(
          (conv1): Conv2d(64, 51, kernel_size=(3, 3), stride=(1, 1), padding=(1, 1), bias=False)
          (bn1): BatchNorm2d(51, eps=1e-05, momentum=0.1, affine=True, track_running_stats=True)
          (relu): ReLU(inplace=True)
          (conv2): Conv2d(51, 64, kernel_size=(3, 3), stride=(1, 1), padding=(1, 1), bias=False)
          (bn2): BatchNorm2d(64, eps=1e-05, momentum=0.1, affine=True, track_running_stats=True)
        )
      )
    )
    (1): PAIModulePyThread(
      (layerArray): ModuleList(
        (0): BasicBlock(
          (conv1): Conv2d(64, 51, kernel_size=(3, 3), stride=(1, 1), padding=(1, 1), bias=False)
          (bn1): BatchNorm2d(51, eps=1e-05, momentum=0.1, affine=True, track_running_stats=True)
          (relu): ReLU(inplace=True)
          (conv2): Conv2d(51, 64, kernel_size=(3, 3), stride=(1, 1), padding=(1, 1), bias=False)
          (bn2): BatchNorm2d(64, eps=1e-05, momentum=0.1, affine=True, track_running_stats=True)
        )
      )
    )
  )
  (layer2): Sequential(
    (0): PAIModulePyThread(
      (layerArray): ModuleList(
        (0): BasicBlock(
          (conv1): Conv2d(64, 102, kernel_size=(3, 3), stride=(2, 2), padding=(1, 1), bias=False)
          (bn1): BatchNorm2d(102, eps=1e-05, momentum=0.1, affine=True, track_running_stats=True)
          (relu): ReLU(inplace=True)
          (conv2): Conv2d(102, 128, kernel_size=(3, 3), stride=(1, 1), padding=(1, 1), bias=False)
          (bn2): BatchNorm2d(128, eps=1e-05, momentum=0.1, affine=True, track_running_stats=True)
          (downsample): Sequential(
            (0): Conv2d(102, 128, kernel_size=(1, 1), stride=(2, 2), bias=False)
            (1): BatchNorm2d(128, eps=1e-05, momentum=0.1, affine=True, track_running_stats=True)
          )
        )
      )
    )
    (1): PAIModulePyThread(
      (layerArray): ModuleList(
        (0): BasicBlock(
          (conv1): Conv2d(128, 102, kernel_size=(3, 3), stride=(1, 1), padding=(1, 1), bias=False)
          (bn1): BatchNorm2d(102, eps=1e-05, momentum=0.1, affine=True, track_running_stats=True)
          (relu): ReLU(inplace=True)
          (conv2): Conv2d(102, 128, kernel_size=(3, 3), stride=(1, 1), padding=(1, 1), bias=False)
          (bn2): BatchNorm2d(128, eps=1e-05, momentum=0.1, affine=True, track_running_stats=True)
        )
      )
    )
  )
  (layer3): Sequential(
    (0): PAIModulePyThread(
      (layerArray): ModuleList(
        (0): BasicBlock(
          (conv1): Conv2d(128, 204, kernel_size=(3, 3), stride=(2, 2), padding=(1, 1), bias=False)
          (bn1): BatchNorm2d(204, eps=1e-05, momentum=0.1, affine=True, track_running_stats=True)
          (relu): ReLU(inplace=True)
          (conv2): Conv2d(204, 256, kernel_size=(3, 3), stride=(1, 1), padding=(1, 1), bias=False)
          (bn2): BatchNorm2d(256, eps=1e-05, momentum=0.1, affine=True, track_running_stats=True)
          (downsample): Sequential(
            (0): Conv2d(204, 256, kernel_size=(1, 1), stride=(2, 2), bias=False)
            (1): BatchNorm2d(256, eps=1e-05, momentum=0.1, affine=True, track_running_stats=True)
          )
        )
      )
    )
    (1): PAIModulePyThread(
      (layerArray): ModuleList(
        (0): BasicBlock(
          (conv1): Conv2d(256, 204, kernel_size=(3, 3), stride=(1, 1), padding=(1, 1), bias=False)
          (bn1): BatchNorm2d(204, eps=1e-05, momentum=0.1, affine=True, track_running_stats=True)
          (relu): ReLU(inplace=True)
          (conv2): Conv2d(204, 256, kernel_size=(3, 3), stride=(1, 1), padding=(1, 1), bias=False)
          (bn2): BatchNorm2d(256, eps=1e-05, momentum=0.1, affine=True, track_running_stats=True)
        )
      )
    )
  )
  (layer4): Sequential(
    (0): PAIModulePyThread(
      (layerArray): ModuleList(
        (0): BasicBlock(
          (conv1): Conv2d(256, 408, kernel_size=(3, 3), stride=(2, 2), padding=(1, 1), bias=False)
          (bn1): BatchNorm2d(408, eps=1e-05, momentum=0.1, affine=True, track_running_stats=True)
          (relu): ReLU(inplace=True)
          (conv2): Conv2d(408, 512, kernel_size=(3, 3), stride=(1, 1), padding=(1, 1), bias=False)
          (bn2): BatchNorm2d(512, eps=1e-05, momentum=0.1, affine=True, track_running_stats=True)
          (downsample): Sequential(
            (0): Conv2d(408, 512, kernel_size=(1, 1), stride=(2, 2), bias=False)
            (1): BatchNorm2d(512, eps=1e-05, momentum=0.1, affine=True, track_running_stats=True)
          )
        )
      )
    )
    (1): PAIModulePyThread(
      (layerArray): ModuleList(
        (0): BasicBlock(
          (conv1): Conv2d(512, 408, kernel_size=(3, 3), stride=(1, 1), padding=(1, 1), bias=False)
          (bn1): BatchNorm2d(408, eps=1e-05, momentum=0.1, affine=True, track_running_stats=True)
          (relu): ReLU(inplace=True)
          (conv2): Conv2d(408, 512, kernel_size=(3, 3), stride=(1, 1), padding=(1, 1), bias=False)
          (bn2): BatchNorm2d(512, eps=1e-05, momentum=0.1, affine=True, track_running_stats=True)
        )
      )
    )
  )
  (avgpool): AdaptiveAvgPool2d(output_size=(1, 1))
  (fc): PAIModulePyThread(
    (layerArray): ModuleList(
      (0): Linear(in_features=512, out_features=1000, bias=True)
    )
  )
)
Training the model after pruning

---------------Epoch number: 0 ---Train accuracy: 91.99202127659575 ----Test accuracy: 88.01063829787235 --------------

---------------Epoch number: 1 ---Train accuracy: 91.83067375886525 ----Test accuracy: 87.63829787234043 --------------

---------------Epoch number: 2 ---Train accuracy: 91.83421985815603 ----Test accuracy: 87.30851063829788 --------------
…
layer1.0.layerArray.0.conv1
layer1.1.layerArray.0.conv1
layer2.0.layerArray.0.conv1
layer2.1.layerArray.0.conv1
layer3.0.layerArray.0.conv1
layer3.1.layerArray.0.conv1
layer4.0.layerArray.0.conv1
layer4.1.layerArray.0.conv1
Length of layer bounds  8
selected  UNIMP indices  [[6], [5], [99, 52], [91, 37], [173, 46, 179, 199], [81, 44, 179, 173], [84, 134, 270, 345, 245, 366, 367, 369], [326, 335, 162, 7, 69, 72, 177, 313]]
The length of indices is  8
50
50
100
100
200
200
400
400
ResNet(
  (conv1): PAIModulePyThread(
    (layerArray): ModuleList(
      (0): PBSequential(
        (model): Sequential(
          (0): Conv2d(3, 64, kernel_size=(7, 7), stride=(2, 2), padding=(3, 3), bias=False)
          (1): BatchNorm2d(64, eps=1e-05, momentum=0.1, affine=True, track_running_stats=True)
        )
      )
    )
  )
  (relu): ReLU(inplace=True)
  (maxpool): MaxPool2d(kernel_size=3, stride=2, padding=1, dilation=1, ceil_mode=False)
  (layer1): Sequential(
    (0): PAIModulePyThread(
      (layerArray): ModuleList(
        (0): BasicBlock(
          (conv1): Conv2d(64, 50, kernel_size=(3, 3), stride=(1, 1), padding=(1, 1), bias=False)
          (bn1): BatchNorm2d(50, eps=1e-05, momentum=0.1, affine=True, track_running_stats=True)
          (relu): ReLU(inplace=True)
          (conv2): Conv2d(50, 64, kernel_size=(3, 3), stride=(1, 1), padding=(1, 1), bias=False)
          (bn2): BatchNorm2d(64, eps=1e-05, momentum=0.1, affine=True, track_running_stats=True)
        )
      )
    )
    (1): PAIModulePyThread(
      (layerArray): ModuleList(
        (0): BasicBlock(
          (conv1): Conv2d(64, 50, kernel_size=(3, 3), stride=(1, 1), padding=(1, 1), bias=False)
          (bn1): BatchNorm2d(50, eps=1e-05, momentum=0.1, affine=True, track_running_stats=True)
          (relu): ReLU(inplace=True)
          (conv2): Conv2d(50, 64, kernel_size=(3, 3), stride=(1, 1), padding=(1, 1), bias=False)
          (bn2): BatchNorm2d(64, eps=1e-05, momentum=0.1, affine=True, track_running_stats=True)
        )
      )
    )
  )
  (layer2): Sequential(
    (0): PAIModulePyThread(
      (layerArray): ModuleList(
        (0): BasicBlock(
          (conv1): Conv2d(64, 100, kernel_size=(3, 3), stride=(2, 2), padding=(1, 1), bias=False)
          (bn1): BatchNorm2d(100, eps=1e-05, momentum=0.1, affine=True, track_running_stats=True)
          (relu): ReLU(inplace=True)
          (conv2): Conv2d(100, 128, kernel_size=(3, 3), stride=(1, 1), padding=(1, 1), bias=False)
          (bn2): BatchNorm2d(128, eps=1e-05, momentum=0.1, affine=True, track_running_stats=True)
          (downsample): Sequential(
            (0): Conv2d(100, 128, kernel_size=(1, 1), stride=(2, 2), bias=False)
            (1): BatchNorm2d(128, eps=1e-05, momentum=0.1, affine=True, track_running_stats=True)
          )
        )
      )
    )
    (1): PAIModulePyThread(
      (layerArray): ModuleList(
        (0): BasicBlock(
          (conv1): Conv2d(128, 100, kernel_size=(3, 3), stride=(1, 1), padding=(1, 1), bias=False)
          (bn1): BatchNorm2d(100, eps=1e-05, momentum=0.1, affine=True, track_running_stats=True)
          (relu): ReLU(inplace=True)
          (conv2): Conv2d(100, 128, kernel_size=(3, 3), stride=(1, 1), padding=(1, 1), bias=False)
          (bn2): BatchNorm2d(128, eps=1e-05, momentum=0.1, affine=True, track_running_stats=True)
        )
      )
    )
  )
  (layer3): Sequential(
    (0): PAIModulePyThread(
      (layerArray): ModuleList(
        (0): BasicBlock(
          (conv1): Conv2d(128, 200, kernel_size=(3, 3), stride=(2, 2), padding=(1, 1), bias=False)
          (bn1): BatchNorm2d(200, eps=1e-05, momentum=0.1, affine=True, track_running_stats=True)
          (relu): ReLU(inplace=True)
          (conv2): Conv2d(200, 256, kernel_size=(3, 3), stride=(1, 1), padding=(1, 1), bias=False)
          (bn2): BatchNorm2d(256, eps=1e-05, momentum=0.1, affine=True, track_running_stats=True)
          (downsample): Sequential(
            (0): Conv2d(200, 256, kernel_size=(1, 1), stride=(2, 2), bias=False)
            (1): BatchNorm2d(256, eps=1e-05, momentum=0.1, affine=True, track_running_stats=True)
          )
        )
      )
    )
    (1): PAIModulePyThread(
      (layerArray): ModuleList(
        (0): BasicBlock(
          (conv1): Conv2d(256, 200, kernel_size=(3, 3), stride=(1, 1), padding=(1, 1), bias=False)
          (bn1): BatchNorm2d(200, eps=1e-05, momentum=0.1, affine=True, track_running_stats=True)
          (relu): ReLU(inplace=True)
          (conv2): Conv2d(200, 256, kernel_size=(3, 3), stride=(1, 1), padding=(1, 1), bias=False)
          (bn2): BatchNorm2d(256, eps=1e-05, momentum=0.1, affine=True, track_running_stats=True)
        )
      )
    )
  )
  (layer4): Sequential(
    (0): PAIModulePyThread(
      (layerArray): ModuleList(
        (0): BasicBlock(
          (conv1): Conv2d(256, 400, kernel_size=(3, 3), stride=(2, 2), padding=(1, 1), bias=False)
          (bn1): BatchNorm2d(400, eps=1e-05, momentum=0.1, affine=True, track_running_stats=True)
          (relu): ReLU(inplace=True)
          (conv2): Conv2d(400, 512, kernel_size=(3, 3), stride=(1, 1), padding=(1, 1), bias=False)
          (bn2): BatchNorm2d(512, eps=1e-05, momentum=0.1, affine=True, track_running_stats=True)
          (downsample): Sequential(
            (0): Conv2d(400, 512, kernel_size=(1, 1), stride=(2, 2), bias=False)
            (1): BatchNorm2d(512, eps=1e-05, momentum=0.1, affine=True, track_running_stats=True)
          )
        )
      )
    )
    (1): PAIModulePyThread(
      (layerArray): ModuleList(
        (0): BasicBlock(
          (conv1): Conv2d(512, 400, kernel_size=(3, 3), stride=(1, 1), padding=(1, 1), bias=False)
          (bn1): BatchNorm2d(400, eps=1e-05, momentum=0.1, affine=True, track_running_stats=True)
          (relu): ReLU(inplace=True)
          (conv2): Conv2d(400, 512, kernel_size=(3, 3), stride=(1, 1), padding=(1, 1), bias=False)
          (bn2): BatchNorm2d(512, eps=1e-05, momentum=0.1, affine=True, track_running_stats=True)
        )
      )
    )
  )
  (avgpool): AdaptiveAvgPool2d(output_size=(1, 1))
  (fc): PAIModulePyThread(
    (layerArray): ModuleList(
      (0): Linear(in_features=512, out_features=1000, bias=True)
    )
  )
)
Training the model after pruning

---------------Epoch number: 0 ---Train accuracy: 91.18262411347517 ----Test accuracy: 87.19148936170212 --------------

---------------Epoch number: 1 ---Train accuracy: 91.14539007092199 ----Test accuracy: 85.84574468085107 --------------

---------------Epoch number: 2 ---Train accuracy: 91.35195035460993 ----Test accuracy: 88.18617021276596 --------------
…
layer1.0.layerArray.0.conv1
layer1.1.layerArray.0.conv1
layer2.0.layerArray.0.conv1
layer2.1.layerArray.0.conv1
layer3.0.layerArray.0.conv1
layer3.1.layerArray.0.conv1
layer4.0.layerArray.0.conv1
layer4.1.layerArray.0.conv1
Length of layer bounds  8
selected  UNIMP indices  [[0], [49], [49, 53], [23, 11], [10, 153, 163, 64], [74, 37, 70, 31], [205, 64, 222, 286, 368, 244, 46, 353], [354, 118, 147, 191, 24, 26, 140, 141]]
The length of indices is  8
49
49
98
98
196
196
392
392
ResNet(
  (conv1): PAIModulePyThread(
    (layerArray): ModuleList(
      (0): PBSequential(
        (model): Sequential(
          (0): Conv2d(3, 64, kernel_size=(7, 7), stride=(2, 2), padding=(3, 3), bias=False)
          (1): BatchNorm2d(64, eps=1e-05, momentum=0.1, affine=True, track_running_stats=True)
        )
      )
    )
  )
  (relu): ReLU(inplace=True)
  (maxpool): MaxPool2d(kernel_size=3, stride=2, padding=1, dilation=1, ceil_mode=False)
  (layer1): Sequential(
    (0): PAIModulePyThread(
      (layerArray): ModuleList(
        (0): BasicBlock(
          (conv1): Conv2d(64, 49, kernel_size=(3, 3), stride=(1, 1), padding=(1, 1), bias=False)
          (bn1): BatchNorm2d(49, eps=1e-05, momentum=0.1, affine=True, track_running_stats=True)
          (relu): ReLU(inplace=True)
          (conv2): Conv2d(49, 64, kernel_size=(3, 3), stride=(1, 1), padding=(1, 1), bias=False)
          (bn2): BatchNorm2d(64, eps=1e-05, momentum=0.1, affine=True, track_running_stats=True)
        )
      )
    )
    (1): PAIModulePyThread(
      (layerArray): ModuleList(
        (0): BasicBlock(
          (conv1): Conv2d(64, 49, kernel_size=(3, 3), stride=(1, 1), padding=(1, 1), bias=False)
          (bn1): BatchNorm2d(49, eps=1e-05, momentum=0.1, affine=True, track_running_stats=True)
          (relu): ReLU(inplace=True)
          (conv2): Conv2d(49, 64, kernel_size=(3, 3), stride=(1, 1), padding=(1, 1), bias=False)
          (bn2): BatchNorm2d(64, eps=1e-05, momentum=0.1, affine=True, track_running_stats=True)
        )
      )
    )
  )
  (layer2): Sequential(
    (0): PAIModulePyThread(
      (layerArray): ModuleList(
        (0): BasicBlock(
          (conv1): Conv2d(64, 98, kernel_size=(3, 3), stride=(2, 2), padding=(1, 1), bias=False)
          (bn1): BatchNorm2d(98, eps=1e-05, momentum=0.1, affine=True, track_running_stats=True)
          (relu): ReLU(inplace=True)
          (conv2): Conv2d(98, 128, kernel_size=(3, 3), stride=(1, 1), padding=(1, 1), bias=False)
          (bn2): BatchNorm2d(128, eps=1e-05, momentum=0.1, affine=True, track_running_stats=True)
          (downsample): Sequential(
            (0): Conv2d(98, 128, kernel_size=(1, 1), stride=(2, 2), bias=False)
            (1): BatchNorm2d(128, eps=1e-05, momentum=0.1, affine=True, track_running_stats=True)
          )
        )
      )
    )
    (1): PAIModulePyThread(
      (layerArray): ModuleList(
        (0): BasicBlock(
          (conv1): Conv2d(128, 98, kernel_size=(3, 3), stride=(1, 1), padding=(1, 1), bias=False)
          (bn1): BatchNorm2d(98, eps=1e-05, momentum=0.1, affine=True, track_running_stats=True)
          (relu): ReLU(inplace=True)
          (conv2): Conv2d(98, 128, kernel_size=(3, 3), stride=(1, 1), padding=(1, 1), bias=False)
          (bn2): BatchNorm2d(128, eps=1e-05, momentum=0.1, affine=True, track_running_stats=True)
        )
      )
    )
  )
  (layer3): Sequential(
    (0): PAIModulePyThread(
      (layerArray): ModuleList(
        (0): BasicBlock(
          (conv1): Conv2d(128, 196, kernel_size=(3, 3), stride=(2, 2), padding=(1, 1), bias=False)
          (bn1): BatchNorm2d(196, eps=1e-05, momentum=0.1, affine=True, track_running_stats=True)
          (relu): ReLU(inplace=True)
          (conv2): Conv2d(196, 256, kernel_size=(3, 3), stride=(1, 1), padding=(1, 1), bias=False)
          (bn2): BatchNorm2d(256, eps=1e-05, momentum=0.1, affine=True, track_running_stats=True)
          (downsample): Sequential(
            (0): Conv2d(196, 256, kernel_size=(1, 1), stride=(2, 2), bias=False)
            (1): BatchNorm2d(256, eps=1e-05, momentum=0.1, affine=True, track_running_stats=True)
          )
        )
      )
    )
    (1): PAIModulePyThread(
      (layerArray): ModuleList(
        (0): BasicBlock(
          (conv1): Conv2d(256, 196, kernel_size=(3, 3), stride=(1, 1), padding=(1, 1), bias=False)
          (bn1): BatchNorm2d(196, eps=1e-05, momentum=0.1, affine=True, track_running_stats=True)
          (relu): ReLU(inplace=True)
          (conv2): Conv2d(196, 256, kernel_size=(3, 3), stride=(1, 1), padding=(1, 1), bias=False)
          (bn2): BatchNorm2d(256, eps=1e-05, momentum=0.1, affine=True, track_running_stats=True)
        )
      )
    )
  )
  (layer4): Sequential(
    (0): PAIModulePyThread(
      (layerArray): ModuleList(
        (0): BasicBlock(
          (conv1): Conv2d(256, 392, kernel_size=(3, 3), stride=(2, 2), padding=(1, 1), bias=False)
          (bn1): BatchNorm2d(392, eps=1e-05, momentum=0.1, affine=True, track_running_stats=True)
          (relu): ReLU(inplace=True)
          (conv2): Conv2d(392, 512, kernel_size=(3, 3), stride=(1, 1), padding=(1, 1), bias=False)
          (bn2): BatchNorm2d(512, eps=1e-05, momentum=0.1, affine=True, track_running_stats=True)
          (downsample): Sequential(
            (0): Conv2d(392, 512, kernel_size=(1, 1), stride=(2, 2), bias=False)
            (1): BatchNorm2d(512, eps=1e-05, momentum=0.1, affine=True, track_running_stats=True)
          )
        )
      )
    )
    (1): PAIModulePyThread(
      (layerArray): ModuleList(
        (0): BasicBlock(
          (conv1): Conv2d(512, 392, kernel_size=(3, 3), stride=(1, 1), padding=(1, 1), bias=False)
          (bn1): BatchNorm2d(392, eps=1e-05, momentum=0.1, affine=True, track_running_stats=True)
          (relu): ReLU(inplace=True)
          (conv2): Conv2d(392, 512, kernel_size=(3, 3), stride=(1, 1), padding=(1, 1), bias=False)
          (bn2): BatchNorm2d(512, eps=1e-05, momentum=0.1, affine=True, track_running_stats=True)
        )
      )
    )
  )
  (avgpool): AdaptiveAvgPool2d(output_size=(1, 1))
  (fc): PAIModulePyThread(
    (layerArray): ModuleList(
      (0): Linear(in_features=512, out_features=1000, bias=True)
    )
  )
)
Training the model after pruning

---------------Epoch number: 0 ---Train accuracy: 91.76773049645391 ----Test accuracy: 87.85106382978724 --------------

---------------Epoch number: 1 ---Train accuracy: 91.72960992907801 ----Test accuracy: 85.78191489361703 --------------

---------------Epoch number: 2 ---Train accuracy: 91.72695035460993 ----Test accuracy: 88.45212765957447 --------------
…
layer1.0.layerArray.0.conv1
layer1.1.layerArray.0.conv1
layer2.0.layerArray.0.conv1
layer2.1.layerArray.0.conv1
layer3.0.layerArray.0.conv1
layer3.1.layerArray.0.conv1
layer4.0.layerArray.0.conv1
layer4.1.layerArray.0.conv1
Length of layer bounds  8
selected  UNIMP indices  [[7], [0], [4, 33], [40, 57], [104, 51, 147, 95], [130, 129, 39, 137], [241, 47, 301, 224, 319, 167, 263, 371], [21, 355, 24, 125, 174, 109, 150, 144]]
The length of indices is  8
48
48
96
96
192
192
384
384
ResNet(
  (conv1): PAIModulePyThread(
    (layerArray): ModuleList(
      (0): PBSequential(
        (model): Sequential(
          (0): Conv2d(3, 64, kernel_size=(7, 7), stride=(2, 2), padding=(3, 3), bias=False)
          (1): BatchNorm2d(64, eps=1e-05, momentum=0.1, affine=True, track_running_stats=True)
        )
      )
    )
  )
  (relu): ReLU(inplace=True)
  (maxpool): MaxPool2d(kernel_size=3, stride=2, padding=1, dilation=1, ceil_mode=False)
  (layer1): Sequential(
    (0): PAIModulePyThread(
      (layerArray): ModuleList(
        (0): BasicBlock(
          (conv1): Conv2d(64, 48, kernel_size=(3, 3), stride=(1, 1), padding=(1, 1), bias=False)
          (bn1): BatchNorm2d(48, eps=1e-05, momentum=0.1, affine=True, track_running_stats=True)
          (relu): ReLU(inplace=True)
          (conv2): Conv2d(48, 64, kernel_size=(3, 3), stride=(1, 1), padding=(1, 1), bias=False)
          (bn2): BatchNorm2d(64, eps=1e-05, momentum=0.1, affine=True, track_running_stats=True)
        )
      )
    )
    (1): PAIModulePyThread(
      (layerArray): ModuleList(
        (0): BasicBlock(
          (conv1): Conv2d(64, 48, kernel_size=(3, 3), stride=(1, 1), padding=(1, 1), bias=False)
          (bn1): BatchNorm2d(48, eps=1e-05, momentum=0.1, affine=True, track_running_stats=True)
          (relu): ReLU(inplace=True)
          (conv2): Conv2d(48, 64, kernel_size=(3, 3), stride=(1, 1), padding=(1, 1), bias=False)
          (bn2): BatchNorm2d(64, eps=1e-05, momentum=0.1, affine=True, track_running_stats=True)
        )
      )
    )
  )
  (layer2): Sequential(
    (0): PAIModulePyThread(
      (layerArray): ModuleList(
        (0): BasicBlock(
          (conv1): Conv2d(64, 96, kernel_size=(3, 3), stride=(2, 2), padding=(1, 1), bias=False)
          (bn1): BatchNorm2d(96, eps=1e-05, momentum=0.1, affine=True, track_running_stats=True)
          (relu): ReLU(inplace=True)
          (conv2): Conv2d(96, 128, kernel_size=(3, 3), stride=(1, 1), padding=(1, 1), bias=False)
          (bn2): BatchNorm2d(128, eps=1e-05, momentum=0.1, affine=True, track_running_stats=True)
          (downsample): Sequential(
            (0): Conv2d(96, 128, kernel_size=(1, 1), stride=(2, 2), bias=False)
            (1): BatchNorm2d(128, eps=1e-05, momentum=0.1, affine=True, track_running_stats=True)
          )
        )
      )
    )
    (1): PAIModulePyThread(
      (layerArray): ModuleList(
        (0): BasicBlock(
          (conv1): Conv2d(128, 96, kernel_size=(3, 3), stride=(1, 1), padding=(1, 1), bias=False)
          (bn1): BatchNorm2d(96, eps=1e-05, momentum=0.1, affine=True, track_running_stats=True)
          (relu): ReLU(inplace=True)
          (conv2): Conv2d(96, 128, kernel_size=(3, 3), stride=(1, 1), padding=(1, 1), bias=False)
          (bn2): BatchNorm2d(128, eps=1e-05, momentum=0.1, affine=True, track_running_stats=True)
        )
      )
    )
  )
  (layer3): Sequential(
    (0): PAIModulePyThread(
      (layerArray): ModuleList(
        (0): BasicBlock(
          (conv1): Conv2d(128, 192, kernel_size=(3, 3), stride=(2, 2), padding=(1, 1), bias=False)
          (bn1): BatchNorm2d(192, eps=1e-05, momentum=0.1, affine=True, track_running_stats=True)
          (relu): ReLU(inplace=True)
          (conv2): Conv2d(192, 256, kernel_size=(3, 3), stride=(1, 1), padding=(1, 1), bias=False)
          (bn2): BatchNorm2d(256, eps=1e-05, momentum=0.1, affine=True, track_running_stats=True)
          (downsample): Sequential(
            (0): Conv2d(192, 256, kernel_size=(1, 1), stride=(2, 2), bias=False)
            (1): BatchNorm2d(256, eps=1e-05, momentum=0.1, affine=True, track_running_stats=True)
          )
        )
      )
    )
    (1): PAIModulePyThread(
      (layerArray): ModuleList(
        (0): BasicBlock(
          (conv1): Conv2d(256, 192, kernel_size=(3, 3), stride=(1, 1), padding=(1, 1), bias=False)
          (bn1): BatchNorm2d(192, eps=1e-05, momentum=0.1, affine=True, track_running_stats=True)
          (relu): ReLU(inplace=True)
          (conv2): Conv2d(192, 256, kernel_size=(3, 3), stride=(1, 1), padding=(1, 1), bias=False)
          (bn2): BatchNorm2d(256, eps=1e-05, momentum=0.1, affine=True, track_running_stats=True)
        )
      )
    )
  )
  (layer4): Sequential(
    (0): PAIModulePyThread(
      (layerArray): ModuleList(
        (0): BasicBlock(
          (conv1): Conv2d(256, 384, kernel_size=(3, 3), stride=(2, 2), padding=(1, 1), bias=False)
          (bn1): BatchNorm2d(384, eps=1e-05, momentum=0.1, affine=True, track_running_stats=True)
          (relu): ReLU(inplace=True)
          (conv2): Conv2d(384, 512, kernel_size=(3, 3), stride=(1, 1), padding=(1, 1), bias=False)
          (bn2): BatchNorm2d(512, eps=1e-05, momentum=0.1, affine=True, track_running_stats=True)
          (downsample): Sequential(
            (0): Conv2d(384, 512, kernel_size=(1, 1), stride=(2, 2), bias=False)
            (1): BatchNorm2d(512, eps=1e-05, momentum=0.1, affine=True, track_running_stats=True)
          )
        )
      )
    )
    (1): PAIModulePyThread(
      (layerArray): ModuleList(
        (0): BasicBlock(
          (conv1): Conv2d(512, 384, kernel_size=(3, 3), stride=(1, 1), padding=(1, 1), bias=False)
          (bn1): BatchNorm2d(384, eps=1e-05, momentum=0.1, affine=True, track_running_stats=True)
          (relu): ReLU(inplace=True)
          (conv2): Conv2d(384, 512, kernel_size=(3, 3), stride=(1, 1), padding=(1, 1), bias=False)
          (bn2): BatchNorm2d(512, eps=1e-05, momentum=0.1, affine=True, track_running_stats=True)
        )
      )
    )
  )
  (avgpool): AdaptiveAvgPool2d(output_size=(1, 1))
  (fc): PAIModulePyThread(
    (layerArray): ModuleList(
      (0): Linear(in_features=512, out_features=1000, bias=True)
    )
  )
)
Training the model after pruning

---------------Epoch number: 0 ---Train accuracy: 90.20744680851064 ----Test accuracy: 80.93617021276596 --------------

---------------Epoch number: 1 ---Train accuracy: 90.65070921985816 ----Test accuracy: 86.91489361702128 --------------

---------------Epoch number: 2 ---Train accuracy: 91.11790780141844 ----Test accuracy: 87.18085106382979 --------------
…
layer1.0.layerArray.0.conv1
layer1.1.layerArray.0.conv1
layer2.0.layerArray.0.conv1
layer2.1.layerArray.0.conv1
layer3.0.layerArray.0.conv1
layer3.1.layerArray.0.conv1
layer4.0.layerArray.0.conv1
layer4.1.layerArray.0.conv1
Length of layer bounds  8
selected  UNIMP indices  [[46], [15], [54, 76], [67, 80], [74, 116, 51, 98], [40, 111, 116, 43], [265, 358, 65, 161, 146, 171, 369, 283], [207, 95, 243, 366, 40, 222, 288, 237]]
The length of indices is  8
47
47
94
94
188
188
376
376
ResNet(
  (conv1): PAIModulePyThread(
    (layerArray): ModuleList(
      (0): PBSequential(
        (model): Sequential(
          (0): Conv2d(3, 64, kernel_size=(7, 7), stride=(2, 2), padding=(3, 3), bias=False)
          (1): BatchNorm2d(64, eps=1e-05, momentum=0.1, affine=True, track_running_stats=True)
        )
      )
    )
  )
  (relu): ReLU(inplace=True)
  (maxpool): MaxPool2d(kernel_size=3, stride=2, padding=1, dilation=1, ceil_mode=False)
  (layer1): Sequential(
    (0): PAIModulePyThread(
      (layerArray): ModuleList(
        (0): BasicBlock(
          (conv1): Conv2d(64, 47, kernel_size=(3, 3), stride=(1, 1), padding=(1, 1), bias=False)
          (bn1): BatchNorm2d(47, eps=1e-05, momentum=0.1, affine=True, track_running_stats=True)
          (relu): ReLU(inplace=True)
          (conv2): Conv2d(47, 64, kernel_size=(3, 3), stride=(1, 1), padding=(1, 1), bias=False)
          (bn2): BatchNorm2d(64, eps=1e-05, momentum=0.1, affine=True, track_running_stats=True)
        )
      )
    )
    (1): PAIModulePyThread(
      (layerArray): ModuleList(
        (0): BasicBlock(
          (conv1): Conv2d(64, 47, kernel_size=(3, 3), stride=(1, 1), padding=(1, 1), bias=False)
          (bn1): BatchNorm2d(47, eps=1e-05, momentum=0.1, affine=True, track_running_stats=True)
          (relu): ReLU(inplace=True)
          (conv2): Conv2d(47, 64, kernel_size=(3, 3), stride=(1, 1), padding=(1, 1), bias=False)
          (bn2): BatchNorm2d(64, eps=1e-05, momentum=0.1, affine=True, track_running_stats=True)
        )
      )
    )
  )
  (layer2): Sequential(
    (0): PAIModulePyThread(
      (layerArray): ModuleList(
        (0): BasicBlock(
          (conv1): Conv2d(64, 94, kernel_size=(3, 3), stride=(2, 2), padding=(1, 1), bias=False)
          (bn1): BatchNorm2d(94, eps=1e-05, momentum=0.1, affine=True, track_running_stats=True)
          (relu): ReLU(inplace=True)
          (conv2): Conv2d(94, 128, kernel_size=(3, 3), stride=(1, 1), padding=(1, 1), bias=False)
          (bn2): BatchNorm2d(128, eps=1e-05, momentum=0.1, affine=True, track_running_stats=True)
          (downsample): Sequential(
            (0): Conv2d(94, 128, kernel_size=(1, 1), stride=(2, 2), bias=False)
            (1): BatchNorm2d(128, eps=1e-05, momentum=0.1, affine=True, track_running_stats=True)
          )
        )
      )
    )
    (1): PAIModulePyThread(
      (layerArray): ModuleList(
        (0): BasicBlock(
          (conv1): Conv2d(128, 94, kernel_size=(3, 3), stride=(1, 1), padding=(1, 1), bias=False)
          (bn1): BatchNorm2d(94, eps=1e-05, momentum=0.1, affine=True, track_running_stats=True)
          (relu): ReLU(inplace=True)
          (conv2): Conv2d(94, 128, kernel_size=(3, 3), stride=(1, 1), padding=(1, 1), bias=False)
          (bn2): BatchNorm2d(128, eps=1e-05, momentum=0.1, affine=True, track_running_stats=True)
        )
      )
    )
  )
  (layer3): Sequential(
    (0): PAIModulePyThread(
      (layerArray): ModuleList(
        (0): BasicBlock(
          (conv1): Conv2d(128, 188, kernel_size=(3, 3), stride=(2, 2), padding=(1, 1), bias=False)
          (bn1): BatchNorm2d(188, eps=1e-05, momentum=0.1, affine=True, track_running_stats=True)
          (relu): ReLU(inplace=True)
          (conv2): Conv2d(188, 256, kernel_size=(3, 3), stride=(1, 1), padding=(1, 1), bias=False)
          (bn2): BatchNorm2d(256, eps=1e-05, momentum=0.1, affine=True, track_running_stats=True)
          (downsample): Sequential(
            (0): Conv2d(188, 256, kernel_size=(1, 1), stride=(2, 2), bias=False)
            (1): BatchNorm2d(256, eps=1e-05, momentum=0.1, affine=True, track_running_stats=True)
          )
        )
      )
    )
    (1): PAIModulePyThread(
      (layerArray): ModuleList(
        (0): BasicBlock(
          (conv1): Conv2d(256, 188, kernel_size=(3, 3), stride=(1, 1), padding=(1, 1), bias=False)
          (bn1): BatchNorm2d(188, eps=1e-05, momentum=0.1, affine=True, track_running_stats=True)
          (relu): ReLU(inplace=True)
          (conv2): Conv2d(188, 256, kernel_size=(3, 3), stride=(1, 1), padding=(1, 1), bias=False)
          (bn2): BatchNorm2d(256, eps=1e-05, momentum=0.1, affine=True, track_running_stats=True)
        )
      )
    )
  )
  (layer4): Sequential(
    (0): PAIModulePyThread(
      (layerArray): ModuleList(
        (0): BasicBlock(
          (conv1): Conv2d(256, 376, kernel_size=(3, 3), stride=(2, 2), padding=(1, 1), bias=False)
          (bn1): BatchNorm2d(376, eps=1e-05, momentum=0.1, affine=True, track_running_stats=True)
          (relu): ReLU(inplace=True)
          (conv2): Conv2d(376, 512, kernel_size=(3, 3), stride=(1, 1), padding=(1, 1), bias=False)
          (bn2): BatchNorm2d(512, eps=1e-05, momentum=0.1, affine=True, track_running_stats=True)
          (downsample): Sequential(
            (0): Conv2d(376, 512, kernel_size=(1, 1), stride=(2, 2), bias=False)
            (1): BatchNorm2d(512, eps=1e-05, momentum=0.1, affine=True, track_running_stats=True)
          )
        )
      )
    )
    (1): PAIModulePyThread(
      (layerArray): ModuleList(
        (0): BasicBlock(
          (conv1): Conv2d(512, 376, kernel_size=(3, 3), stride=(1, 1), padding=(1, 1), bias=False)
          (bn1): BatchNorm2d(376, eps=1e-05, momentum=0.1, affine=True, track_running_stats=True)
          (relu): ReLU(inplace=True)
          (conv2): Conv2d(376, 512, kernel_size=(3, 3), stride=(1, 1), padding=(1, 1), bias=False)
          (bn2): BatchNorm2d(512, eps=1e-05, momentum=0.1, affine=True, track_running_stats=True)
        )
      )
    )
  )
  (avgpool): AdaptiveAvgPool2d(output_size=(1, 1))
  (fc): PAIModulePyThread(
    (layerArray): ModuleList(
      (0): Linear(in_features=512, out_features=1000, bias=True)
    )
  )
)
Training the model after pruning

---------------Epoch number: 0 ---Train accuracy: 91.73049645390071 ----Test accuracy: 87.31382978723404 --------------

---------------Epoch number: 1 ---Train accuracy: 91.53812056737588 ----Test accuracy: 87.79787234042553 --------------

---------------Epoch number: 2 ---Train accuracy: 91.76063829787235 ----Test accuracy: 87.20212765957447 --------------
…
layer1.0.layerArray.0.conv1
layer1.1.layerArray.0.conv1
layer2.0.layerArray.0.conv1
layer2.1.layerArray.0.conv1
layer3.0.layerArray.0.conv1
layer3.1.layerArray.0.conv1
layer4.0.layerArray.0.conv1
layer4.1.layerArray.0.conv1
Length of layer bounds  8
selected  UNIMP indices  [[3], [29], [32, 71], [70, 69], [133, 29, 180, 141], [95, 157, 87, 85], [21, 105, 226, 264, 359, 127, 142, 254], [57, 274, 77, 88, 152, 198, 358, 244]]
The length of indices is  8
46
46
92
92
184
184
368
368
ResNet(
  (conv1): PAIModulePyThread(
    (layerArray): ModuleList(
      (0): PBSequential(
        (model): Sequential(
          (0): Conv2d(3, 64, kernel_size=(7, 7), stride=(2, 2), padding=(3, 3), bias=False)
          (1): BatchNorm2d(64, eps=1e-05, momentum=0.1, affine=True, track_running_stats=True)
        )
      )
    )
  )
  (relu): ReLU(inplace=True)
  (maxpool): MaxPool2d(kernel_size=3, stride=2, padding=1, dilation=1, ceil_mode=False)
  (layer1): Sequential(
    (0): PAIModulePyThread(
      (layerArray): ModuleList(
        (0): BasicBlock(
          (conv1): Conv2d(64, 46, kernel_size=(3, 3), stride=(1, 1), padding=(1, 1), bias=False)
          (bn1): BatchNorm2d(46, eps=1e-05, momentum=0.1, affine=True, track_running_stats=True)
          (relu): ReLU(inplace=True)
          (conv2): Conv2d(46, 64, kernel_size=(3, 3), stride=(1, 1), padding=(1, 1), bias=False)
          (bn2): BatchNorm2d(64, eps=1e-05, momentum=0.1, affine=True, track_running_stats=True)
        )
      )
    )
    (1): PAIModulePyThread(
      (layerArray): ModuleList(
        (0): BasicBlock(
          (conv1): Conv2d(64, 46, kernel_size=(3, 3), stride=(1, 1), padding=(1, 1), bias=False)
          (bn1): BatchNorm2d(46, eps=1e-05, momentum=0.1, affine=True, track_running_stats=True)
          (relu): ReLU(inplace=True)
          (conv2): Conv2d(46, 64, kernel_size=(3, 3), stride=(1, 1), padding=(1, 1), bias=False)
          (bn2): BatchNorm2d(64, eps=1e-05, momentum=0.1, affine=True, track_running_stats=True)
        )
      )
    )
  )
  (layer2): Sequential(
    (0): PAIModulePyThread(
      (layerArray): ModuleList(
        (0): BasicBlock(
          (conv1): Conv2d(64, 92, kernel_size=(3, 3), stride=(2, 2), padding=(1, 1), bias=False)
          (bn1): BatchNorm2d(92, eps=1e-05, momentum=0.1, affine=True, track_running_stats=True)
          (relu): ReLU(inplace=True)
          (conv2): Conv2d(92, 128, kernel_size=(3, 3), stride=(1, 1), padding=(1, 1), bias=False)
          (bn2): BatchNorm2d(128, eps=1e-05, momentum=0.1, affine=True, track_running_stats=True)
          (downsample): Sequential(
            (0): Conv2d(92, 128, kernel_size=(1, 1), stride=(2, 2), bias=False)
            (1): BatchNorm2d(128, eps=1e-05, momentum=0.1, affine=True, track_running_stats=True)
          )
        )
      )
    )
    (1): PAIModulePyThread(
      (layerArray): ModuleList(
        (0): BasicBlock(
          (conv1): Conv2d(128, 92, kernel_size=(3, 3), stride=(1, 1), padding=(1, 1), bias=False)
          (bn1): BatchNorm2d(92, eps=1e-05, momentum=0.1, affine=True, track_running_stats=True)
          (relu): ReLU(inplace=True)
          (conv2): Conv2d(92, 128, kernel_size=(3, 3), stride=(1, 1), padding=(1, 1), bias=False)
          (bn2): BatchNorm2d(128, eps=1e-05, momentum=0.1, affine=True, track_running_stats=True)
        )
      )
    )
  )
  (layer3): Sequential(
    (0): PAIModulePyThread(
      (layerArray): ModuleList(
        (0): BasicBlock(
          (conv1): Conv2d(128, 184, kernel_size=(3, 3), stride=(2, 2), padding=(1, 1), bias=False)
          (bn1): BatchNorm2d(184, eps=1e-05, momentum=0.1, affine=True, track_running_stats=True)
          (relu): ReLU(inplace=True)
          (conv2): Conv2d(184, 256, kernel_size=(3, 3), stride=(1, 1), padding=(1, 1), bias=False)
          (bn2): BatchNorm2d(256, eps=1e-05, momentum=0.1, affine=True, track_running_stats=True)
          (downsample): Sequential(
            (0): Conv2d(184, 256, kernel_size=(1, 1), stride=(2, 2), bias=False)
            (1): BatchNorm2d(256, eps=1e-05, momentum=0.1, affine=True, track_running_stats=True)
          )
        )
      )
    )
    (1): PAIModulePyThread(
      (layerArray): ModuleList(
        (0): BasicBlock(
          (conv1): Conv2d(256, 184, kernel_size=(3, 3), stride=(1, 1), padding=(1, 1), bias=False)
          (bn1): BatchNorm2d(184, eps=1e-05, momentum=0.1, affine=True, track_running_stats=True)
          (relu): ReLU(inplace=True)
          (conv2): Conv2d(184, 256, kernel_size=(3, 3), stride=(1, 1), padding=(1, 1), bias=False)
          (bn2): BatchNorm2d(256, eps=1e-05, momentum=0.1, affine=True, track_running_stats=True)
        )
      )
    )
  )
  (layer4): Sequential(
    (0): PAIModulePyThread(
      (layerArray): ModuleList(
        (0): BasicBlock(
          (conv1): Conv2d(256, 368, kernel_size=(3, 3), stride=(2, 2), padding=(1, 1), bias=False)
          (bn1): BatchNorm2d(368, eps=1e-05, momentum=0.1, affine=True, track_running_stats=True)
          (relu): ReLU(inplace=True)
          (conv2): Conv2d(368, 512, kernel_size=(3, 3), stride=(1, 1), padding=(1, 1), bias=False)
          (bn2): BatchNorm2d(512, eps=1e-05, momentum=0.1, affine=True, track_running_stats=True)
          (downsample): Sequential(
            (0): Conv2d(368, 512, kernel_size=(1, 1), stride=(2, 2), bias=False)
            (1): BatchNorm2d(512, eps=1e-05, momentum=0.1, affine=True, track_running_stats=True)
          )
        )
      )
    )
    (1): PAIModulePyThread(
      (layerArray): ModuleList(
        (0): BasicBlock(
          (conv1): Conv2d(512, 368, kernel_size=(3, 3), stride=(1, 1), padding=(1, 1), bias=False)
          (bn1): BatchNorm2d(368, eps=1e-05, momentum=0.1, affine=True, track_running_stats=True)
          (relu): ReLU(inplace=True)
          (conv2): Conv2d(368, 512, kernel_size=(3, 3), stride=(1, 1), padding=(1, 1), bias=False)
          (bn2): BatchNorm2d(512, eps=1e-05, momentum=0.1, affine=True, track_running_stats=True)
        )
      )
    )
  )
  (avgpool): AdaptiveAvgPool2d(output_size=(1, 1))
  (fc): PAIModulePyThread(
    (layerArray): ModuleList(
      (0): Linear(in_features=512, out_features=1000, bias=True)
    )
  )
)
Training the model after pruning

---------------Epoch number: 0 ---Train accuracy: 92.07003546099291 ----Test accuracy: 88.0372340425532 --------------

---------------Epoch number: 1 ---Train accuracy: 91.98049645390071 ----Test accuracy: 87.90957446808511 --------------

---------------Epoch number: 2 ---Train accuracy: 92.01507092198581 ----Test accuracy: 88.13297872340425 --------------
…
layer1.0.layerArray.0.conv1
layer1.1.layerArray.0.conv1
layer2.0.layerArray.0.conv1
layer2.1.layerArray.0.conv1
layer3.0.layerArray.0.conv1
layer3.1.layerArray.0.conv1
layer4.0.layerArray.0.conv1
layer4.1.layerArray.0.conv1
Length of layer bounds  8
selected  UNIMP indices  [[38], [16], [83, 42], [13, 9], [165, 183, 168, 179], [132, 177, 26, 33], [106, 241, 252, 282, 295, 59, 199, 39], [6, 157, 264, 293, 39, 83, 182, 275]]
The length of indices is  8
45
45
90
90
180
180
360
360
ResNet(
  (conv1): PAIModulePyThread(
    (layerArray): ModuleList(
      (0): PBSequential(
        (model): Sequential(
          (0): Conv2d(3, 64, kernel_size=(7, 7), stride=(2, 2), padding=(3, 3), bias=False)
          (1): BatchNorm2d(64, eps=1e-05, momentum=0.1, affine=True, track_running_stats=True)
        )
      )
    )
  )
  (relu): ReLU(inplace=True)
  (maxpool): MaxPool2d(kernel_size=3, stride=2, padding=1, dilation=1, ceil_mode=False)
  (layer1): Sequential(
    (0): PAIModulePyThread(
      (layerArray): ModuleList(
        (0): BasicBlock(
          (conv1): Conv2d(64, 45, kernel_size=(3, 3), stride=(1, 1), padding=(1, 1), bias=False)
          (bn1): BatchNorm2d(45, eps=1e-05, momentum=0.1, affine=True, track_running_stats=True)
          (relu): ReLU(inplace=True)
          (conv2): Conv2d(45, 64, kernel_size=(3, 3), stride=(1, 1), padding=(1, 1), bias=False)
          (bn2): BatchNorm2d(64, eps=1e-05, momentum=0.1, affine=True, track_running_stats=True)
        )
      )
    )
    (1): PAIModulePyThread(
      (layerArray): ModuleList(
        (0): BasicBlock(
          (conv1): Conv2d(64, 45, kernel_size=(3, 3), stride=(1, 1), padding=(1, 1), bias=False)
          (bn1): BatchNorm2d(45, eps=1e-05, momentum=0.1, affine=True, track_running_stats=True)
          (relu): ReLU(inplace=True)
          (conv2): Conv2d(45, 64, kernel_size=(3, 3), stride=(1, 1), padding=(1, 1), bias=False)
          (bn2): BatchNorm2d(64, eps=1e-05, momentum=0.1, affine=True, track_running_stats=True)
        )
      )
    )
  )
  (layer2): Sequential(
    (0): PAIModulePyThread(
      (layerArray): ModuleList(
        (0): BasicBlock(
          (conv1): Conv2d(64, 90, kernel_size=(3, 3), stride=(2, 2), padding=(1, 1), bias=False)
          (bn1): BatchNorm2d(90, eps=1e-05, momentum=0.1, affine=True, track_running_stats=True)
          (relu): ReLU(inplace=True)
          (conv2): Conv2d(90, 128, kernel_size=(3, 3), stride=(1, 1), padding=(1, 1), bias=False)
          (bn2): BatchNorm2d(128, eps=1e-05, momentum=0.1, affine=True, track_running_stats=True)
          (downsample): Sequential(
            (0): Conv2d(90, 128, kernel_size=(1, 1), stride=(2, 2), bias=False)
            (1): BatchNorm2d(128, eps=1e-05, momentum=0.1, affine=True, track_running_stats=True)
          )
        )
      )
    )
    (1): PAIModulePyThread(
      (layerArray): ModuleList(
        (0): BasicBlock(
          (conv1): Conv2d(128, 90, kernel_size=(3, 3), stride=(1, 1), padding=(1, 1), bias=False)
          (bn1): BatchNorm2d(90, eps=1e-05, momentum=0.1, affine=True, track_running_stats=True)
          (relu): ReLU(inplace=True)
          (conv2): Conv2d(90, 128, kernel_size=(3, 3), stride=(1, 1), padding=(1, 1), bias=False)
          (bn2): BatchNorm2d(128, eps=1e-05, momentum=0.1, affine=True, track_running_stats=True)
        )
      )
    )
  )
  (layer3): Sequential(
    (0): PAIModulePyThread(
      (layerArray): ModuleList(
        (0): BasicBlock(
          (conv1): Conv2d(128, 180, kernel_size=(3, 3), stride=(2, 2), padding=(1, 1), bias=False)
          (bn1): BatchNorm2d(180, eps=1e-05, momentum=0.1, affine=True, track_running_stats=True)
          (relu): ReLU(inplace=True)
          (conv2): Conv2d(180, 256, kernel_size=(3, 3), stride=(1, 1), padding=(1, 1), bias=False)
          (bn2): BatchNorm2d(256, eps=1e-05, momentum=0.1, affine=True, track_running_stats=True)
          (downsample): Sequential(
            (0): Conv2d(180, 256, kernel_size=(1, 1), stride=(2, 2), bias=False)
            (1): BatchNorm2d(256, eps=1e-05, momentum=0.1, affine=True, track_running_stats=True)
          )
        )
      )
    )
    (1): PAIModulePyThread(
      (layerArray): ModuleList(
        (0): BasicBlock(
          (conv1): Conv2d(256, 180, kernel_size=(3, 3), stride=(1, 1), padding=(1, 1), bias=False)
          (bn1): BatchNorm2d(180, eps=1e-05, momentum=0.1, affine=True, track_running_stats=True)
          (relu): ReLU(inplace=True)
          (conv2): Conv2d(180, 256, kernel_size=(3, 3), stride=(1, 1), padding=(1, 1), bias=False)
          (bn2): BatchNorm2d(256, eps=1e-05, momentum=0.1, affine=True, track_running_stats=True)
        )
      )
    )
  )
  (layer4): Sequential(
    (0): PAIModulePyThread(
      (layerArray): ModuleList(
        (0): BasicBlock(
          (conv1): Conv2d(256, 360, kernel_size=(3, 3), stride=(2, 2), padding=(1, 1), bias=False)
          (bn1): BatchNorm2d(360, eps=1e-05, momentum=0.1, affine=True, track_running_stats=True)
          (relu): ReLU(inplace=True)
          (conv2): Conv2d(360, 512, kernel_size=(3, 3), stride=(1, 1), padding=(1, 1), bias=False)
          (bn2): BatchNorm2d(512, eps=1e-05, momentum=0.1, affine=True, track_running_stats=True)
          (downsample): Sequential(
            (0): Conv2d(360, 512, kernel_size=(1, 1), stride=(2, 2), bias=False)
            (1): BatchNorm2d(512, eps=1e-05, momentum=0.1, affine=True, track_running_stats=True)
          )
        )
      )
    )
    (1): PAIModulePyThread(
      (layerArray): ModuleList(
        (0): BasicBlock(
          (conv1): Conv2d(512, 360, kernel_size=(3, 3), stride=(1, 1), padding=(1, 1), bias=False)
          (bn1): BatchNorm2d(360, eps=1e-05, momentum=0.1, affine=True, track_running_stats=True)
          (relu): ReLU(inplace=True)
          (conv2): Conv2d(360, 512, kernel_size=(3, 3), stride=(1, 1), padding=(1, 1), bias=False)
          (bn2): BatchNorm2d(512, eps=1e-05, momentum=0.1, affine=True, track_running_stats=True)
        )
      )
    )
  )
  (avgpool): AdaptiveAvgPool2d(output_size=(1, 1))
  (fc): PAIModulePyThread(
    (layerArray): ModuleList(
      (0): Linear(in_features=512, out_features=1000, bias=True)
    )
  )
)
Training the model after pruning

---------------Epoch number: 0 ---Train accuracy: 90.57978723404256 ----Test accuracy: 86.20212765957447 --------------

---------------Epoch number: 1 ---Train accuracy: 90.95833333333333 ----Test accuracy: 87.83510638297872 --------------

---------------Epoch number: 2 ---Train accuracy: 91.20124113475177 ----Test accuracy: 86.83510638297872 --------------
…
layer1.0.layerArray.0.conv1
layer1.1.layerArray.0.conv1
layer2.0.layerArray.0.conv1
layer2.1.layerArray.0.conv1
layer3.0.layerArray.0.conv1
layer3.1.layerArray.0.conv1
layer4.0.layerArray.0.conv1
layer4.1.layerArray.0.conv1
Length of layer bounds  8
selected  UNIMP indices  [[34], [16], [83, 3], [70, 64], [82, 125, 26, 45], [85, 107, 164, 93], [224, 129, 263, 314, 315, 4, 146, 162], [276, 270, 44, 221, 266, 144, 161, 311]]
The length of indices is  8
44
44
88
88
176
176
352
352
ResNet(
  (conv1): PAIModulePyThread(
    (layerArray): ModuleList(
      (0): PBSequential(
        (model): Sequential(
          (0): Conv2d(3, 64, kernel_size=(7, 7), stride=(2, 2), padding=(3, 3), bias=False)
          (1): BatchNorm2d(64, eps=1e-05, momentum=0.1, affine=True, track_running_stats=True)
        )
      )
    )
  )
  (relu): ReLU(inplace=True)
  (maxpool): MaxPool2d(kernel_size=3, stride=2, padding=1, dilation=1, ceil_mode=False)
  (layer1): Sequential(
    (0): PAIModulePyThread(
      (layerArray): ModuleList(
        (0): BasicBlock(
          (conv1): Conv2d(64, 44, kernel_size=(3, 3), stride=(1, 1), padding=(1, 1), bias=False)
          (bn1): BatchNorm2d(44, eps=1e-05, momentum=0.1, affine=True, track_running_stats=True)
          (relu): ReLU(inplace=True)
          (conv2): Conv2d(44, 64, kernel_size=(3, 3), stride=(1, 1), padding=(1, 1), bias=False)
          (bn2): BatchNorm2d(64, eps=1e-05, momentum=0.1, affine=True, track_running_stats=True)
        )
      )
    )
    (1): PAIModulePyThread(
      (layerArray): ModuleList(
        (0): BasicBlock(
          (conv1): Conv2d(64, 44, kernel_size=(3, 3), stride=(1, 1), padding=(1, 1), bias=False)
          (bn1): BatchNorm2d(44, eps=1e-05, momentum=0.1, affine=True, track_running_stats=True)
          (relu): ReLU(inplace=True)
          (conv2): Conv2d(44, 64, kernel_size=(3, 3), stride=(1, 1), padding=(1, 1), bias=False)
          (bn2): BatchNorm2d(64, eps=1e-05, momentum=0.1, affine=True, track_running_stats=True)
        )
      )
    )
  )
  (layer2): Sequential(
    (0): PAIModulePyThread(
      (layerArray): ModuleList(
        (0): BasicBlock(
          (conv1): Conv2d(64, 88, kernel_size=(3, 3), stride=(2, 2), padding=(1, 1), bias=False)
          (bn1): BatchNorm2d(88, eps=1e-05, momentum=0.1, affine=True, track_running_stats=True)
          (relu): ReLU(inplace=True)
          (conv2): Conv2d(88, 128, kernel_size=(3, 3), stride=(1, 1), padding=(1, 1), bias=False)
          (bn2): BatchNorm2d(128, eps=1e-05, momentum=0.1, affine=True, track_running_stats=True)
          (downsample): Sequential(
            (0): Conv2d(88, 128, kernel_size=(1, 1), stride=(2, 2), bias=False)
            (1): BatchNorm2d(128, eps=1e-05, momentum=0.1, affine=True, track_running_stats=True)
          )
        )
      )
    )
    (1): PAIModulePyThread(
      (layerArray): ModuleList(
        (0): BasicBlock(
          (conv1): Conv2d(128, 88, kernel_size=(3, 3), stride=(1, 1), padding=(1, 1), bias=False)
          (bn1): BatchNorm2d(88, eps=1e-05, momentum=0.1, affine=True, track_running_stats=True)
          (relu): ReLU(inplace=True)
          (conv2): Conv2d(88, 128, kernel_size=(3, 3), stride=(1, 1), padding=(1, 1), bias=False)
          (bn2): BatchNorm2d(128, eps=1e-05, momentum=0.1, affine=True, track_running_stats=True)
        )
      )
    )
  )
  (layer3): Sequential(
    (0): PAIModulePyThread(
      (layerArray): ModuleList(
        (0): BasicBlock(
          (conv1): Conv2d(128, 176, kernel_size=(3, 3), stride=(2, 2), padding=(1, 1), bias=False)
          (bn1): BatchNorm2d(176, eps=1e-05, momentum=0.1, affine=True, track_running_stats=True)
          (relu): ReLU(inplace=True)
          (conv2): Conv2d(176, 256, kernel_size=(3, 3), stride=(1, 1), padding=(1, 1), bias=False)
          (bn2): BatchNorm2d(256, eps=1e-05, momentum=0.1, affine=True, track_running_stats=True)
          (downsample): Sequential(
            (0): Conv2d(176, 256, kernel_size=(1, 1), stride=(2, 2), bias=False)
            (1): BatchNorm2d(256, eps=1e-05, momentum=0.1, affine=True, track_running_stats=True)
          )
        )
      )
    )
    (1): PAIModulePyThread(
      (layerArray): ModuleList(
        (0): BasicBlock(
          (conv1): Conv2d(256, 176, kernel_size=(3, 3), stride=(1, 1), padding=(1, 1), bias=False)
          (bn1): BatchNorm2d(176, eps=1e-05, momentum=0.1, affine=True, track_running_stats=True)
          (relu): ReLU(inplace=True)
          (conv2): Conv2d(176, 256, kernel_size=(3, 3), stride=(1, 1), padding=(1, 1), bias=False)
          (bn2): BatchNorm2d(256, eps=1e-05, momentum=0.1, affine=True, track_running_stats=True)
        )
      )
    )
  )
  (layer4): Sequential(
    (0): PAIModulePyThread(
      (layerArray): ModuleList(
        (0): BasicBlock(
          (conv1): Conv2d(256, 352, kernel_size=(3, 3), stride=(2, 2), padding=(1, 1), bias=False)
          (bn1): BatchNorm2d(352, eps=1e-05, momentum=0.1, affine=True, track_running_stats=True)
          (relu): ReLU(inplace=True)
          (conv2): Conv2d(352, 512, kernel_size=(3, 3), stride=(1, 1), padding=(1, 1), bias=False)
          (bn2): BatchNorm2d(512, eps=1e-05, momentum=0.1, affine=True, track_running_stats=True)
          (downsample): Sequential(
            (0): Conv2d(352, 512, kernel_size=(1, 1), stride=(2, 2), bias=False)
            (1): BatchNorm2d(512, eps=1e-05, momentum=0.1, affine=True, track_running_stats=True)
          )
        )
      )
    )
    (1): PAIModulePyThread(
      (layerArray): ModuleList(
        (0): BasicBlock(
          (conv1): Conv2d(512, 352, kernel_size=(3, 3), stride=(1, 1), padding=(1, 1), bias=False)
          (bn1): BatchNorm2d(352, eps=1e-05, momentum=0.1, affine=True, track_running_stats=True)
          (relu): ReLU(inplace=True)
          (conv2): Conv2d(352, 512, kernel_size=(3, 3), stride=(1, 1), padding=(1, 1), bias=False)
          (bn2): BatchNorm2d(512, eps=1e-05, momentum=0.1, affine=True, track_running_stats=True)
        )
      )
    )
  )
  (avgpool): AdaptiveAvgPool2d(output_size=(1, 1))
  (fc): PAIModulePyThread(
    (layerArray): ModuleList(
      (0): Linear(in_features=512, out_features=1000, bias=True)
    )
  )
)
Training the model after pruning

---------------Epoch number: 0 ---Train accuracy: 91.23404255319149 ----Test accuracy: 85.45744680851064 --------------

---------------Epoch number: 1 ---Train accuracy: 91.28280141843972 ----Test accuracy: 87.73936170212765 --------------

---------------Epoch number: 2 ---Train accuracy: 91.427304964539 ----Test accuracy: 85.92553191489361 --------------
…
layer1.0.layerArray.0.conv1
layer1.1.layerArray.0.conv1
layer2.0.layerArray.0.conv1
layer2.1.layerArray.0.conv1
layer3.0.layerArray.0.conv1
layer3.1.layerArray.0.conv1
layer4.0.layerArray.0.conv1
layer4.1.layerArray.0.conv1
Length of layer bounds  8
selected  UNIMP indices  [[42], [8], [79, 65], [70, 7], [114, 53, 129, 29], [166, 29, 78, 83], [163, 266, 327, 349, 236, 249, 284, 288], [177, 346, 5, 137, 183, 266, 281, 293]]
The length of indices is  8
43
43
86
86
172
172
344
344
ResNet(
  (conv1): PAIModulePyThread(
    (layerArray): ModuleList(
      (0): PBSequential(
        (model): Sequential(
          (0): Conv2d(3, 64, kernel_size=(7, 7), stride=(2, 2), padding=(3, 3), bias=False)
          (1): BatchNorm2d(64, eps=1e-05, momentum=0.1, affine=True, track_running_stats=True)
        )
      )
    )
  )
  (relu): ReLU(inplace=True)
  (maxpool): MaxPool2d(kernel_size=3, stride=2, padding=1, dilation=1, ceil_mode=False)
  (layer1): Sequential(
    (0): PAIModulePyThread(
      (layerArray): ModuleList(
        (0): BasicBlock(
          (conv1): Conv2d(64, 43, kernel_size=(3, 3), stride=(1, 1), padding=(1, 1), bias=False)
          (bn1): BatchNorm2d(43, eps=1e-05, momentum=0.1, affine=True, track_running_stats=True)
          (relu): ReLU(inplace=True)
          (conv2): Conv2d(43, 64, kernel_size=(3, 3), stride=(1, 1), padding=(1, 1), bias=False)
          (bn2): BatchNorm2d(64, eps=1e-05, momentum=0.1, affine=True, track_running_stats=True)
        )
      )
    )
    (1): PAIModulePyThread(
      (layerArray): ModuleList(
        (0): BasicBlock(
          (conv1): Conv2d(64, 43, kernel_size=(3, 3), stride=(1, 1), padding=(1, 1), bias=False)
          (bn1): BatchNorm2d(43, eps=1e-05, momentum=0.1, affine=True, track_running_stats=True)
          (relu): ReLU(inplace=True)
          (conv2): Conv2d(43, 64, kernel_size=(3, 3), stride=(1, 1), padding=(1, 1), bias=False)
          (bn2): BatchNorm2d(64, eps=1e-05, momentum=0.1, affine=True, track_running_stats=True)
        )
      )
    )
  )
  (layer2): Sequential(
    (0): PAIModulePyThread(
      (layerArray): ModuleList(
        (0): BasicBlock(
          (conv1): Conv2d(64, 86, kernel_size=(3, 3), stride=(2, 2), padding=(1, 1), bias=False)
          (bn1): BatchNorm2d(86, eps=1e-05, momentum=0.1, affine=True, track_running_stats=True)
          (relu): ReLU(inplace=True)
          (conv2): Conv2d(86, 128, kernel_size=(3, 3), stride=(1, 1), padding=(1, 1), bias=False)
          (bn2): BatchNorm2d(128, eps=1e-05, momentum=0.1, affine=True, track_running_stats=True)
          (downsample): Sequential(
            (0): Conv2d(86, 128, kernel_size=(1, 1), stride=(2, 2), bias=False)
            (1): BatchNorm2d(128, eps=1e-05, momentum=0.1, affine=True, track_running_stats=True)
          )
        )
      )
    )
    (1): PAIModulePyThread(
      (layerArray): ModuleList(
        (0): BasicBlock(
          (conv1): Conv2d(128, 86, kernel_size=(3, 3), stride=(1, 1), padding=(1, 1), bias=False)
          (bn1): BatchNorm2d(86, eps=1e-05, momentum=0.1, affine=True, track_running_stats=True)
          (relu): ReLU(inplace=True)
          (conv2): Conv2d(86, 128, kernel_size=(3, 3), stride=(1, 1), padding=(1, 1), bias=False)
          (bn2): BatchNorm2d(128, eps=1e-05, momentum=0.1, affine=True, track_running_stats=True)
        )
      )
    )
  )
  (layer3): Sequential(
    (0): PAIModulePyThread(
      (layerArray): ModuleList(
        (0): BasicBlock(
          (conv1): Conv2d(128, 172, kernel_size=(3, 3), stride=(2, 2), padding=(1, 1), bias=False)
          (bn1): BatchNorm2d(172, eps=1e-05, momentum=0.1, affine=True, track_running_stats=True)
          (relu): ReLU(inplace=True)
          (conv2): Conv2d(172, 256, kernel_size=(3, 3), stride=(1, 1), padding=(1, 1), bias=False)
          (bn2): BatchNorm2d(256, eps=1e-05, momentum=0.1, affine=True, track_running_stats=True)
          (downsample): Sequential(
            (0): Conv2d(172, 256, kernel_size=(1, 1), stride=(2, 2), bias=False)
            (1): BatchNorm2d(256, eps=1e-05, momentum=0.1, affine=True, track_running_stats=True)
          )
        )
      )
    )
    (1): PAIModulePyThread(
      (layerArray): ModuleList(
        (0): BasicBlock(
          (conv1): Conv2d(256, 172, kernel_size=(3, 3), stride=(1, 1), padding=(1, 1), bias=False)
          (bn1): BatchNorm2d(172, eps=1e-05, momentum=0.1, affine=True, track_running_stats=True)
          (relu): ReLU(inplace=True)
          (conv2): Conv2d(172, 256, kernel_size=(3, 3), stride=(1, 1), padding=(1, 1), bias=False)
          (bn2): BatchNorm2d(256, eps=1e-05, momentum=0.1, affine=True, track_running_stats=True)
        )
      )
    )
  )
  (layer4): Sequential(
    (0): PAIModulePyThread(
      (layerArray): ModuleList(
        (0): BasicBlock(
          (conv1): Conv2d(256, 344, kernel_size=(3, 3), stride=(2, 2), padding=(1, 1), bias=False)
          (bn1): BatchNorm2d(344, eps=1e-05, momentum=0.1, affine=True, track_running_stats=True)
          (relu): ReLU(inplace=True)
          (conv2): Conv2d(344, 512, kernel_size=(3, 3), stride=(1, 1), padding=(1, 1), bias=False)
          (bn2): BatchNorm2d(512, eps=1e-05, momentum=0.1, affine=True, track_running_stats=True)
          (downsample): Sequential(
            (0): Conv2d(344, 512, kernel_size=(1, 1), stride=(2, 2), bias=False)
            (1): BatchNorm2d(512, eps=1e-05, momentum=0.1, affine=True, track_running_stats=True)
          )
        )
      )
    )
    (1): PAIModulePyThread(
      (layerArray): ModuleList(
        (0): BasicBlock(
          (conv1): Conv2d(512, 344, kernel_size=(3, 3), stride=(1, 1), padding=(1, 1), bias=False)
          (bn1): BatchNorm2d(344, eps=1e-05, momentum=0.1, affine=True, track_running_stats=True)
          (relu): ReLU(inplace=True)
          (conv2): Conv2d(344, 512, kernel_size=(3, 3), stride=(1, 1), padding=(1, 1), bias=False)
          (bn2): BatchNorm2d(512, eps=1e-05, momentum=0.1, affine=True, track_running_stats=True)
        )
      )
    )
  )
  (avgpool): AdaptiveAvgPool2d(output_size=(1, 1))
  (fc): PAIModulePyThread(
    (layerArray): ModuleList(
      (0): Linear(in_features=512, out_features=1000, bias=True)
    )
  )
)
Training the model after pruning

---------------Epoch number: 0 ---Train accuracy: 92.42287234042553 ----Test accuracy: 85.90957446808511 --------------

---------------Epoch number: 1 ---Train accuracy: 92.17109929078015 ----Test accuracy: 87.29255319148936 --------------

---------------Epoch number: 2 ---Train accuracy: 92.16755319148936 ----Test accuracy: 87.63297872340425 --------------
…
layer1.0.layerArray.0.conv1
layer1.1.layerArray.0.conv1
layer2.0.layerArray.0.conv1
layer2.1.layerArray.0.conv1
layer3.0.layerArray.0.conv1
layer3.1.layerArray.0.conv1
layer4.0.layerArray.0.conv1
layer4.1.layerArray.0.conv1
Length of layer bounds  8
selected  UNIMP indices  [[4], [15], [70, 62], [30, 83], [96, 126, 149, 43], [66, 8, 113, 50], [245, 33, 101, 242, 261, 304, 335, 0], [48, 310, 58, 74, 59, 69, 139, 212]]
The length of indices is  8
42
42
84
84
168
168
336
336
ResNet(
  (conv1): PAIModulePyThread(
    (layerArray): ModuleList(
      (0): PBSequential(
        (model): Sequential(
          (0): Conv2d(3, 64, kernel_size=(7, 7), stride=(2, 2), padding=(3, 3), bias=False)
          (1): BatchNorm2d(64, eps=1e-05, momentum=0.1, affine=True, track_running_stats=True)
        )
      )
    )
  )
  (relu): ReLU(inplace=True)
  (maxpool): MaxPool2d(kernel_size=3, stride=2, padding=1, dilation=1, ceil_mode=False)
  (layer1): Sequential(
    (0): PAIModulePyThread(
      (layerArray): ModuleList(
        (0): BasicBlock(
          (conv1): Conv2d(64, 42, kernel_size=(3, 3), stride=(1, 1), padding=(1, 1), bias=False)
          (bn1): BatchNorm2d(42, eps=1e-05, momentum=0.1, affine=True, track_running_stats=True)
          (relu): ReLU(inplace=True)
          (conv2): Conv2d(42, 64, kernel_size=(3, 3), stride=(1, 1), padding=(1, 1), bias=False)
          (bn2): BatchNorm2d(64, eps=1e-05, momentum=0.1, affine=True, track_running_stats=True)
        )
      )
    )
    (1): PAIModulePyThread(
      (layerArray): ModuleList(
        (0): BasicBlock(
          (conv1): Conv2d(64, 42, kernel_size=(3, 3), stride=(1, 1), padding=(1, 1), bias=False)
          (bn1): BatchNorm2d(42, eps=1e-05, momentum=0.1, affine=True, track_running_stats=True)
          (relu): ReLU(inplace=True)
          (conv2): Conv2d(42, 64, kernel_size=(3, 3), stride=(1, 1), padding=(1, 1), bias=False)
          (bn2): BatchNorm2d(64, eps=1e-05, momentum=0.1, affine=True, track_running_stats=True)
        )
      )
    )
  )
  (layer2): Sequential(
    (0): PAIModulePyThread(
      (layerArray): ModuleList(
        (0): BasicBlock(
          (conv1): Conv2d(64, 84, kernel_size=(3, 3), stride=(2, 2), padding=(1, 1), bias=False)
          (bn1): BatchNorm2d(84, eps=1e-05, momentum=0.1, affine=True, track_running_stats=True)
          (relu): ReLU(inplace=True)
          (conv2): Conv2d(84, 128, kernel_size=(3, 3), stride=(1, 1), padding=(1, 1), bias=False)
          (bn2): BatchNorm2d(128, eps=1e-05, momentum=0.1, affine=True, track_running_stats=True)
          (downsample): Sequential(
            (0): Conv2d(84, 128, kernel_size=(1, 1), stride=(2, 2), bias=False)
            (1): BatchNorm2d(128, eps=1e-05, momentum=0.1, affine=True, track_running_stats=True)
          )
        )
      )
    )
    (1): PAIModulePyThread(
      (layerArray): ModuleList(
        (0): BasicBlock(
          (conv1): Conv2d(128, 84, kernel_size=(3, 3), stride=(1, 1), padding=(1, 1), bias=False)
          (bn1): BatchNorm2d(84, eps=1e-05, momentum=0.1, affine=True, track_running_stats=True)
          (relu): ReLU(inplace=True)
          (conv2): Conv2d(84, 128, kernel_size=(3, 3), stride=(1, 1), padding=(1, 1), bias=False)
          (bn2): BatchNorm2d(128, eps=1e-05, momentum=0.1, affine=True, track_running_stats=True)
        )
      )
    )
  )
  (layer3): Sequential(
    (0): PAIModulePyThread(
      (layerArray): ModuleList(
        (0): BasicBlock(
          (conv1): Conv2d(128, 168, kernel_size=(3, 3), stride=(2, 2), padding=(1, 1), bias=False)
          (bn1): BatchNorm2d(168, eps=1e-05, momentum=0.1, affine=True, track_running_stats=True)
          (relu): ReLU(inplace=True)
          (conv2): Conv2d(168, 256, kernel_size=(3, 3), stride=(1, 1), padding=(1, 1), bias=False)
          (bn2): BatchNorm2d(256, eps=1e-05, momentum=0.1, affine=True, track_running_stats=True)
          (downsample): Sequential(
            (0): Conv2d(168, 256, kernel_size=(1, 1), stride=(2, 2), bias=False)
            (1): BatchNorm2d(256, eps=1e-05, momentum=0.1, affine=True, track_running_stats=True)
          )
        )
      )
    )
    (1): PAIModulePyThread(
      (layerArray): ModuleList(
        (0): BasicBlock(
          (conv1): Conv2d(256, 168, kernel_size=(3, 3), stride=(1, 1), padding=(1, 1), bias=False)
          (bn1): BatchNorm2d(168, eps=1e-05, momentum=0.1, affine=True, track_running_stats=True)
          (relu): ReLU(inplace=True)
          (conv2): Conv2d(168, 256, kernel_size=(3, 3), stride=(1, 1), padding=(1, 1), bias=False)
          (bn2): BatchNorm2d(256, eps=1e-05, momentum=0.1, affine=True, track_running_stats=True)
        )
      )
    )
  )
  (layer4): Sequential(
    (0): PAIModulePyThread(
      (layerArray): ModuleList(
        (0): BasicBlock(
…
    (1): PAIModulePyThread(
      (layerArray): ModuleList(
        (0): BasicBlock(
          (conv1): Conv2d(128, 70, kernel_size=(3, 3), stride=(1, 1), padding=(1, 1), bias=False)
          (bn1): BatchNorm2d(70, eps=1e-05, momentum=0.1, affine=True, track_running_stats=True)
          (relu): ReLU(inplace=True)
          (conv2): Conv2d(70, 128, kernel_size=(3, 3), stride=(1, 1), padding=(1, 1), bias=False)
          (bn2): BatchNorm2d(128, eps=1e-05, momentum=0.1, affine=True, track_running_stats=True)
        )
      )
    )
  )
  (layer3): Sequential(
    (0): PAIModulePyThread(
      (layerArray): ModuleList(
        (0): BasicBlock(
          (conv1): Conv2d(128, 140, kernel_size=(3, 3), stride=(2, 2), padding=(1, 1), bias=False)
          (bn1): BatchNorm2d(140, eps=1e-05, momentum=0.1, affine=True, track_running_stats=True)
          (relu): ReLU(inplace=True)
          (conv2): Conv2d(140, 256, kernel_size=(3, 3), stride=(1, 1), padding=(1, 1), bias=False)
          (bn2): BatchNorm2d(256, eps=1e-05, momentum=0.1, affine=True, track_running_stats=True)
          (downsample): Sequential(
            (0): Conv2d(140, 256, kernel_size=(1, 1), stride=(2, 2), bias=False)
            (1): BatchNorm2d(256, eps=1e-05, momentum=0.1, affine=True, track_running_stats=True)
          )
        )
      )
    )
    (1): PAIModulePyThread(
      (layerArray): ModuleList(
        (0): BasicBlock(
          (conv1): Conv2d(256, 140, kernel_size=(3, 3), stride=(1, 1), padding=(1, 1), bias=False)
          (bn1): BatchNorm2d(140, eps=1e-05, momentum=0.1, affine=True, track_running_stats=True)
          (relu): ReLU(inplace=True)
          (conv2): Conv2d(140, 256, kernel_size=(3, 3), stride=(1, 1), padding=(1, 1), bias=False)
          (bn2): BatchNorm2d(256, eps=1e-05, momentum=0.1, affine=True, track_running_stats=True)
        )
      )
    )
  )
  (layer4): Sequential(
    (0): PAIModulePyThread(
      (layerArray): ModuleList(
        (0): BasicBlock(
          (conv1): Conv2d(256, 280, kernel_size=(3, 3), stride=(2, 2), padding=(1, 1), bias=False)
          (bn1): BatchNorm2d(280, eps=1e-05, momentum=0.1, affine=True, track_running_stats=True)
          (relu): ReLU(inplace=True)
          (conv2): Conv2d(280, 512, kernel_size=(3, 3), stride=(1, 1), padding=(1, 1), bias=False)
          (bn2): BatchNorm2d(512, eps=1e-05, momentum=0.1, affine=True, track_running_stats=True)
          (downsample): Sequential(
            (0): Conv2d(280, 512, kernel_size=(1, 1), stride=(2, 2), bias=False)
            (1): BatchNorm2d(512, eps=1e-05, momentum=0.1, affine=True, track_running_stats=True)
          )
        )
      )
    )
    (1): PAIModulePyThread(
      (layerArray): ModuleList(
        (0): BasicBlock(
          (conv1): Conv2d(512, 280, kernel_size=(3, 3), stride=(1, 1), padding=(1, 1), bias=False)
          (bn1): BatchNorm2d(280, eps=1e-05, momentum=0.1, affine=True, track_running_stats=True)
          (relu): ReLU(inplace=True)
          (conv2): Conv2d(280, 512, kernel_size=(3, 3), stride=(1, 1), padding=(1, 1), bias=False)
          (bn2): BatchNorm2d(512, eps=1e-05, momentum=0.1, affine=True, track_running_stats=True)
        )
      )
    )
  )
  (avgpool): AdaptiveAvgPool2d(output_size=(1, 1))
  (fc): PAIModulePyThread(
    (layerArray): ModuleList(
      (0): Linear(in_features=512, out_features=1000, bias=True)
    )
  )
)
Training the model after pruning

---------------Epoch number: 0 ---Train accuracy: 92.11170212765957 ----Test accuracy: 87.70212765957447 --------------

---------------Epoch number: 1 ---Train accuracy: 91.94326241134752 ----Test accuracy: 87.43085106382979 --------------

---------------Epoch number: 2 ---Train accuracy: 92.16400709219859 ----Test accuracy: 87.84574468085107 --------------
…
layer1.0.layerArray.0.conv1
layer1.1.layerArray.0.conv1
layer2.0.layerArray.0.conv1
layer2.1.layerArray.0.conv1
layer3.0.layerArray.0.conv1
layer3.1.layerArray.0.conv1
layer4.0.layerArray.0.conv1
layer4.1.layerArray.0.conv1
Length of layer bounds  8
selected  UNIMP indices  [[4], [7], [6, 10], [0, 11], [133, 2, 57, 127], [106, 21, 23, 36], [18, 106, 2, 62, 77, 116, 144, 157], [88, 70, 77, 92, 137, 192, 250, 18]]
The length of indices is  8
34
34
68
68
136
136
272
272
ResNet(
  (conv1): PAIModulePyThread(
    (layerArray): ModuleList(
      (0): PBSequential(
        (model): Sequential(
          (0): Conv2d(3, 64, kernel_size=(7, 7), stride=(2, 2), padding=(3, 3), bias=False)
          (1): BatchNorm2d(64, eps=1e-05, momentum=0.1, affine=True, track_running_stats=True)
        )
      )
    )
  )
  (relu): ReLU(inplace=True)
  (maxpool): MaxPool2d(kernel_size=3, stride=2, padding=1, dilation=1, ceil_mode=False)
  (layer1): Sequential(
    (0): PAIModulePyThread(
      (layerArray): ModuleList(
        (0): BasicBlock(
          (conv1): Conv2d(64, 34, kernel_size=(3, 3), stride=(1, 1), padding=(1, 1), bias=False)
          (bn1): BatchNorm2d(34, eps=1e-05, momentum=0.1, affine=True, track_running_stats=True)
          (relu): ReLU(inplace=True)
          (conv2): Conv2d(34, 64, kernel_size=(3, 3), stride=(1, 1), padding=(1, 1), bias=False)
          (bn2): BatchNorm2d(64, eps=1e-05, momentum=0.1, affine=True, track_running_stats=True)
        )
      )
    )
    (1): PAIModulePyThread(
      (layerArray): ModuleList(
        (0): BasicBlock(
          (conv1): Conv2d(64, 34, kernel_size=(3, 3), stride=(1, 1), padding=(1, 1), bias=False)
          (bn1): BatchNorm2d(34, eps=1e-05, momentum=0.1, affine=True, track_running_stats=True)
          (relu): ReLU(inplace=True)
          (conv2): Conv2d(34, 64, kernel_size=(3, 3), stride=(1, 1), padding=(1, 1), bias=False)
          (bn2): BatchNorm2d(64, eps=1e-05, momentum=0.1, affine=True, track_running_stats=True)
        )
      )
    )
  )
  (layer2): Sequential(
    (0): PAIModulePyThread(
      (layerArray): ModuleList(
        (0): BasicBlock(
          (conv1): Conv2d(64, 68, kernel_size=(3, 3), stride=(2, 2), padding=(1, 1), bias=False)
          (bn1): BatchNorm2d(68, eps=1e-05, momentum=0.1, affine=True, track_running_stats=True)
          (relu): ReLU(inplace=True)
          (conv2): Conv2d(68, 128, kernel_size=(3, 3), stride=(1, 1), padding=(1, 1), bias=False)
          (bn2): BatchNorm2d(128, eps=1e-05, momentum=0.1, affine=True, track_running_stats=True)
          (downsample): Sequential(
            (0): Conv2d(68, 128, kernel_size=(1, 1), stride=(2, 2), bias=False)
            (1): BatchNorm2d(128, eps=1e-05, momentum=0.1, affine=True, track_running_stats=True)
          )
        )
      )
    )
    (1): PAIModulePyThread(
      (layerArray): ModuleList(
        (0): BasicBlock(
          (conv1): Conv2d(128, 68, kernel_size=(3, 3), stride=(1, 1), padding=(1, 1), bias=False)
          (bn1): BatchNorm2d(68, eps=1e-05, momentum=0.1, affine=True, track_running_stats=True)
          (relu): ReLU(inplace=True)
          (conv2): Conv2d(68, 128, kernel_size=(3, 3), stride=(1, 1), padding=(1, 1), bias=False)
          (bn2): BatchNorm2d(128, eps=1e-05, momentum=0.1, affine=True, track_running_stats=True)
        )
      )
    )
  )
  (layer3): Sequential(
    (0): PAIModulePyThread(
      (layerArray): ModuleList(
        (0): BasicBlock(
          (conv1): Conv2d(128, 136, kernel_size=(3, 3), stride=(2, 2), padding=(1, 1), bias=False)
          (bn1): BatchNorm2d(136, eps=1e-05, momentum=0.1, affine=True, track_running_stats=True)
          (relu): ReLU(inplace=True)
          (conv2): Conv2d(136, 256, kernel_size=(3, 3), stride=(1, 1), padding=(1, 1), bias=False)
          (bn2): BatchNorm2d(256, eps=1e-05, momentum=0.1, affine=True, track_running_stats=True)
          (downsample): Sequential(
            (0): Conv2d(136, 256, kernel_size=(1, 1), stride=(2, 2), bias=False)
            (1): BatchNorm2d(256, eps=1e-05, momentum=0.1, affine=True, track_running_stats=True)
          )
        )
      )
    )
    (1): PAIModulePyThread(
      (layerArray): ModuleList(
        (0): BasicBlock(
          (conv1): Conv2d(256, 136, kernel_size=(3, 3), stride=(1, 1), padding=(1, 1), bias=False)
          (bn1): BatchNorm2d(136, eps=1e-05, momentum=0.1, affine=True, track_running_stats=True)
          (relu): ReLU(inplace=True)
          (conv2): Conv2d(136, 256, kernel_size=(3, 3), stride=(1, 1), padding=(1, 1), bias=False)
          (bn2): BatchNorm2d(256, eps=1e-05, momentum=0.1, affine=True, track_running_stats=True)
        )
      )
    )
  )
  (layer4): Sequential(
    (0): PAIModulePyThread(
      (layerArray): ModuleList(
        (0): BasicBlock(
          (conv1): Conv2d(256, 272, kernel_size=(3, 3), stride=(2, 2), padding=(1, 1), bias=False)
          (bn1): BatchNorm2d(272, eps=1e-05, momentum=0.1, affine=True, track_running_stats=True)
          (relu): ReLU(inplace=True)
          (conv2): Conv2d(272, 512, kernel_size=(3, 3), stride=(1, 1), padding=(1, 1), bias=False)
          (bn2): BatchNorm2d(512, eps=1e-05, momentum=0.1, affine=True, track_running_stats=True)
          (downsample): Sequential(
            (0): Conv2d(272, 512, kernel_size=(1, 1), stride=(2, 2), bias=False)
            (1): BatchNorm2d(512, eps=1e-05, momentum=0.1, affine=True, track_running_stats=True)
          )
        )
      )
    )
    (1): PAIModulePyThread(
      (layerArray): ModuleList(
        (0): BasicBlock(
          (conv1): Conv2d(512, 272, kernel_size=(3, 3), stride=(1, 1), padding=(1, 1), bias=False)
          (bn1): BatchNorm2d(272, eps=1e-05, momentum=0.1, affine=True, track_running_stats=True)
          (relu): ReLU(inplace=True)
          (conv2): Conv2d(272, 512, kernel_size=(3, 3), stride=(1, 1), padding=(1, 1), bias=False)
          (bn2): BatchNorm2d(512, eps=1e-05, momentum=0.1, affine=True, track_running_stats=True)
        )
      )
    )
  )
  (avgpool): AdaptiveAvgPool2d(output_size=(1, 1))
  (fc): PAIModulePyThread(
    (layerArray): ModuleList(
      (0): Linear(in_features=512, out_features=1000, bias=True)
    )
  )
)
Training the model after pruning

---------------Epoch number: 0 ---Train accuracy: 92.0354609929078 ----Test accuracy: 87.30319148936171 --------------

---------------Epoch number: 1 ---Train accuracy: 91.79166666666667 ----Test accuracy: 87.13829787234043 --------------

---------------Epoch number: 2 ---Train accuracy: 91.99468085106383 ----Test accuracy: 88.0 --------------
…
layer1.0.layerArray.0.conv1
layer1.1.layerArray.0.conv1
layer2.0.layerArray.0.conv1
layer2.1.layerArray.0.conv1
layer3.0.layerArray.0.conv1
layer3.1.layerArray.0.conv1
layer4.0.layerArray.0.conv1
layer4.1.layerArray.0.conv1
Length of layer bounds  8
selected  UNIMP indices  [[5], [13], [5, 40], [47, 55], [68, 74, 59, 26], [41, 128, 131, 100], [27, 186, 181, 87, 241, 225, 224, 85], [11, 96, 9, 83, 3, 210, 208, 205]]
The length of indices is  8
33
33
66
66
132
132
264
264
ResNet(
  (conv1): PAIModulePyThread(
    (layerArray): ModuleList(
      (0): PBSequential(
        (model): Sequential(
          (0): Conv2d(3, 64, kernel_size=(7, 7), stride=(2, 2), padding=(3, 3), bias=False)
          (1): BatchNorm2d(64, eps=1e-05, momentum=0.1, affine=True, track_running_stats=True)
        )
      )
    )
  )
  (relu): ReLU(inplace=True)
  (maxpool): MaxPool2d(kernel_size=3, stride=2, padding=1, dilation=1, ceil_mode=False)
  (layer1): Sequential(
    (0): PAIModulePyThread(
      (layerArray): ModuleList(
        (0): BasicBlock(
          (conv1): Conv2d(64, 33, kernel_size=(3, 3), stride=(1, 1), padding=(1, 1), bias=False)
          (bn1): BatchNorm2d(33, eps=1e-05, momentum=0.1, affine=True, track_running_stats=True)
          (relu): ReLU(inplace=True)
          (conv2): Conv2d(33, 64, kernel_size=(3, 3), stride=(1, 1), padding=(1, 1), bias=False)
          (bn2): BatchNorm2d(64, eps=1e-05, momentum=0.1, affine=True, track_running_stats=True)
        )
      )
    )
    (1): PAIModulePyThread(
      (layerArray): ModuleList(
        (0): BasicBlock(
          (conv1): Conv2d(64, 33, kernel_size=(3, 3), stride=(1, 1), padding=(1, 1), bias=False)
          (bn1): BatchNorm2d(33, eps=1e-05, momentum=0.1, affine=True, track_running_stats=True)
          (relu): ReLU(inplace=True)
          (conv2): Conv2d(33, 64, kernel_size=(3, 3), stride=(1, 1), padding=(1, 1), bias=False)
          (bn2): BatchNorm2d(64, eps=1e-05, momentum=0.1, affine=True, track_running_stats=True)
        )
      )
    )
  )
  (layer2): Sequential(
    (0): PAIModulePyThread(
      (layerArray): ModuleList(
        (0): BasicBlock(
          (conv1): Conv2d(64, 66, kernel_size=(3, 3), stride=(2, 2), padding=(1, 1), bias=False)
          (bn1): BatchNorm2d(66, eps=1e-05, momentum=0.1, affine=True, track_running_stats=True)
          (relu): ReLU(inplace=True)
          (conv2): Conv2d(66, 128, kernel_size=(3, 3), stride=(1, 1), padding=(1, 1), bias=False)
          (bn2): BatchNorm2d(128, eps=1e-05, momentum=0.1, affine=True, track_running_stats=True)
          (downsample): Sequential(
            (0): Conv2d(66, 128, kernel_size=(1, 1), stride=(2, 2), bias=False)
            (1): BatchNorm2d(128, eps=1e-05, momentum=0.1, affine=True, track_running_stats=True)
          )
        )
      )
    )
    (1): PAIModulePyThread(
      (layerArray): ModuleList(
        (0): BasicBlock(
          (conv1): Conv2d(128, 66, kernel_size=(3, 3), stride=(1, 1), padding=(1, 1), bias=False)
          (bn1): BatchNorm2d(66, eps=1e-05, momentum=0.1, affine=True, track_running_stats=True)
          (relu): ReLU(inplace=True)
          (conv2): Conv2d(66, 128, kernel_size=(3, 3), stride=(1, 1), padding=(1, 1), bias=False)
          (bn2): BatchNorm2d(128, eps=1e-05, momentum=0.1, affine=True, track_running_stats=True)
        )
      )
    )
  )
  (layer3): Sequential(
    (0): PAIModulePyThread(
      (layerArray): ModuleList(
        (0): BasicBlock(
          (conv1): Conv2d(128, 132, kernel_size=(3, 3), stride=(2, 2), padding=(1, 1), bias=False)
          (bn1): BatchNorm2d(132, eps=1e-05, momentum=0.1, affine=True, track_running_stats=True)
          (relu): ReLU(inplace=True)
          (conv2): Conv2d(132, 256, kernel_size=(3, 3), stride=(1, 1), padding=(1, 1), bias=False)
          (bn2): BatchNorm2d(256, eps=1e-05, momentum=0.1, affine=True, track_running_stats=True)
          (downsample): Sequential(
            (0): Conv2d(132, 256, kernel_size=(1, 1), stride=(2, 2), bias=False)
            (1): BatchNorm2d(256, eps=1e-05, momentum=0.1, affine=True, track_running_stats=True)
          )
        )
      )
    )
    (1): PAIModulePyThread(
      (layerArray): ModuleList(
        (0): BasicBlock(
          (conv1): Conv2d(256, 132, kernel_size=(3, 3), stride=(1, 1), padding=(1, 1), bias=False)
          (bn1): BatchNorm2d(132, eps=1e-05, momentum=0.1, affine=True, track_running_stats=True)
          (relu): ReLU(inplace=True)
          (conv2): Conv2d(132, 256, kernel_size=(3, 3), stride=(1, 1), padding=(1, 1), bias=False)
          (bn2): BatchNorm2d(256, eps=1e-05, momentum=0.1, affine=True, track_running_stats=True)
        )
      )
    )
  )
  (layer4): Sequential(
    (0): PAIModulePyThread(
      (layerArray): ModuleList(
        (0): BasicBlock(
          (conv1): Conv2d(256, 264, kernel_size=(3, 3), stride=(2, 2), padding=(1, 1), bias=False)
          (bn1): BatchNorm2d(264, eps=1e-05, momentum=0.1, affine=True, track_running_stats=True)
          (relu): ReLU(inplace=True)
          (conv2): Conv2d(264, 512, kernel_size=(3, 3), stride=(1, 1), padding=(1, 1), bias=False)
          (bn2): BatchNorm2d(512, eps=1e-05, momentum=0.1, affine=True, track_running_stats=True)
          (downsample): Sequential(
            (0): Conv2d(264, 512, kernel_size=(1, 1), stride=(2, 2), bias=False)
            (1): BatchNorm2d(512, eps=1e-05, momentum=0.1, affine=True, track_running_stats=True)
          )
        )
      )
    )
    (1): PAIModulePyThread(
      (layerArray): ModuleList(
        (0): BasicBlock(
          (conv1): Conv2d(512, 264, kernel_size=(3, 3), stride=(1, 1), padding=(1, 1), bias=False)
          (bn1): BatchNorm2d(264, eps=1e-05, momentum=0.1, affine=True, track_running_stats=True)
          (relu): ReLU(inplace=True)
          (conv2): Conv2d(264, 512, kernel_size=(3, 3), stride=(1, 1), padding=(1, 1), bias=False)
          (bn2): BatchNorm2d(512, eps=1e-05, momentum=0.1, affine=True, track_running_stats=True)
        )
      )
    )
  )
  (avgpool): AdaptiveAvgPool2d(output_size=(1, 1))
  (fc): PAIModulePyThread(
    (layerArray): ModuleList(
      (0): Linear(in_features=512, out_features=1000, bias=True)
    )
  )
)
Training the model after pruning

---------------Epoch number: 0 ---Train accuracy: 91.04078014184397 ----Test accuracy: 86.74468085106383 --------------

---------------Epoch number: 1 ---Train accuracy: 91.11702127659575 ----Test accuracy: 86.05851063829788 --------------

---------------Epoch number: 2 ---Train accuracy: 91.40159574468085 ----Test accuracy: 87.22872340425532 --------------
…
layer1.0.layerArray.0.conv1
layer1.1.layerArray.0.conv1
layer2.0.layerArray.0.conv1
layer2.1.layerArray.0.conv1
layer3.0.layerArray.0.conv1
layer3.1.layerArray.0.conv1
layer4.0.layerArray.0.conv1
layer4.1.layerArray.0.conv1
Length of layer bounds  8
selected  UNIMP indices  [[20], [11], [15, 32], [10, 16], [60, 0, 130, 46], [130, 25, 11, 121], [207, 184, 235, 29, 159, 27, 55, 252], [200, 90, 257, 25, 76, 249, 263, 121]]
The length of indices is  8
32
32
64
64
128
128
256
256
ResNet(
  (conv1): PAIModulePyThread(
    (layerArray): ModuleList(
      (0): PBSequential(
        (model): Sequential(
          (0): Conv2d(3, 64, kernel_size=(7, 7), stride=(2, 2), padding=(3, 3), bias=False)
          (1): BatchNorm2d(64, eps=1e-05, momentum=0.1, affine=True, track_running_stats=True)
        )
      )
    )
  )
  (relu): ReLU(inplace=True)
  (maxpool): MaxPool2d(kernel_size=3, stride=2, padding=1, dilation=1, ceil_mode=False)
  (layer1): Sequential(
    (0): PAIModulePyThread(
      (layerArray): ModuleList(
        (0): BasicBlock(
          (conv1): Conv2d(64, 32, kernel_size=(3, 3), stride=(1, 1), padding=(1, 1), bias=False)
          (bn1): BatchNorm2d(32, eps=1e-05, momentum=0.1, affine=True, track_running_stats=True)
          (relu): ReLU(inplace=True)
          (conv2): Conv2d(32, 64, kernel_size=(3, 3), stride=(1, 1), padding=(1, 1), bias=False)
          (bn2): BatchNorm2d(64, eps=1e-05, momentum=0.1, affine=True, track_running_stats=True)
        )
      )
    )
    (1): PAIModulePyThread(
      (layerArray): ModuleList(
        (0): BasicBlock(
          (conv1): Conv2d(64, 32, kernel_size=(3, 3), stride=(1, 1), padding=(1, 1), bias=False)
          (bn1): BatchNorm2d(32, eps=1e-05, momentum=0.1, affine=True, track_running_stats=True)
          (relu): ReLU(inplace=True)
          (conv2): Conv2d(32, 64, kernel_size=(3, 3), stride=(1, 1), padding=(1, 1), bias=False)
          (bn2): BatchNorm2d(64, eps=1e-05, momentum=0.1, affine=True, track_running_stats=True)
        )
      )
    )
  )
  (layer2): Sequential(
    (0): PAIModulePyThread(
      (layerArray): ModuleList(
        (0): BasicBlock(
          (conv1): Conv2d(64, 64, kernel_size=(3, 3), stride=(2, 2), padding=(1, 1), bias=False)
          (bn1): BatchNorm2d(64, eps=1e-05, momentum=0.1, affine=True, track_running_stats=True)
          (relu): ReLU(inplace=True)
          (conv2): Conv2d(64, 128, kernel_size=(3, 3), stride=(1, 1), padding=(1, 1), bias=False)
          (bn2): BatchNorm2d(128, eps=1e-05, momentum=0.1, affine=True, track_running_stats=True)
          (downsample): Sequential(
            (0): Conv2d(64, 128, kernel_size=(1, 1), stride=(2, 2), bias=False)
            (1): BatchNorm2d(128, eps=1e-05, momentum=0.1, affine=True, track_running_stats=True)
          )
        )
      )
    )
    (1): PAIModulePyThread(
      (layerArray): ModuleList(
        (0): BasicBlock(
          (conv1): Conv2d(128, 64, kernel_size=(3, 3), stride=(1, 1), padding=(1, 1), bias=False)
          (bn1): BatchNorm2d(64, eps=1e-05, momentum=0.1, affine=True, track_running_stats=True)
          (relu): ReLU(inplace=True)
          (conv2): Conv2d(64, 128, kernel_size=(3, 3), stride=(1, 1), padding=(1, 1), bias=False)
          (bn2): BatchNorm2d(128, eps=1e-05, momentum=0.1, affine=True, track_running_stats=True)
        )
      )
    )
  )
  (layer3): Sequential(
    (0): PAIModulePyThread(
      (layerArray): ModuleList(
        (0): BasicBlock(
          (conv1): Conv2d(128, 128, kernel_size=(3, 3), stride=(2, 2), padding=(1, 1), bias=False)
          (bn1): BatchNorm2d(128, eps=1e-05, momentum=0.1, affine=True, track_running_stats=True)
          (relu): ReLU(inplace=True)
          (conv2): Conv2d(128, 256, kernel_size=(3, 3), stride=(1, 1), padding=(1, 1), bias=False)
          (bn2): BatchNorm2d(256, eps=1e-05, momentum=0.1, affine=True, track_running_stats=True)
          (downsample): Sequential(
            (0): Conv2d(128, 256, kernel_size=(1, 1), stride=(2, 2), bias=False)
            (1): BatchNorm2d(256, eps=1e-05, momentum=0.1, affine=True, track_running_stats=True)
          )
        )
      )
    )
    (1): PAIModulePyThread(
      (layerArray): ModuleList(
        (0): BasicBlock(
          (conv1): Conv2d(256, 128, kernel_size=(3, 3), stride=(1, 1), padding=(1, 1), bias=False)
          (bn1): BatchNorm2d(128, eps=1e-05, momentum=0.1, affine=True, track_running_stats=True)
          (relu): ReLU(inplace=True)
          (conv2): Conv2d(128, 256, kernel_size=(3, 3), stride=(1, 1), padding=(1, 1), bias=False)
          (bn2): BatchNorm2d(256, eps=1e-05, momentum=0.1, affine=True, track_running_stats=True)
        )
      )
    )
  )
  (layer4): Sequential(
    (0): PAIModulePyThread(
      (layerArray): ModuleList(
        (0): BasicBlock(
          (conv1): Conv2d(256, 256, kernel_size=(3, 3), stride=(2, 2), padding=(1, 1), bias=False)
          (bn1): BatchNorm2d(256, eps=1e-05, momentum=0.1, affine=True, track_running_stats=True)
          (relu): ReLU(inplace=True)
          (conv2): Conv2d(256, 512, kernel_size=(3, 3), stride=(1, 1), padding=(1, 1), bias=False)
          (bn2): BatchNorm2d(512, eps=1e-05, momentum=0.1, affine=True, track_running_stats=True)
          (downsample): Sequential(
            (0): Conv2d(256, 512, kernel_size=(1, 1), stride=(2, 2), bias=False)
            (1): BatchNorm2d(512, eps=1e-05, momentum=0.1, affine=True, track_running_stats=True)
          )
        )
      )
    )
    (1): PAIModulePyThread(
      (layerArray): ModuleList(
        (0): BasicBlock(
          (conv1): Conv2d(512, 256, kernel_size=(3, 3), stride=(1, 1), padding=(1, 1), bias=False)
          (bn1): BatchNorm2d(256, eps=1e-05, momentum=0.1, affine=True, track_running_stats=True)
          (relu): ReLU(inplace=True)
          (conv2): Conv2d(256, 512, kernel_size=(3, 3), stride=(1, 1), padding=(1, 1), bias=False)
          (bn2): BatchNorm2d(512, eps=1e-05, momentum=0.1, affine=True, track_running_stats=True)
        )
      )
    )
  )
  (avgpool): AdaptiveAvgPool2d(output_size=(1, 1))
  (fc): PAIModulePyThread(
    (layerArray): ModuleList(
      (0): Linear(in_features=512, out_features=1000, bias=True)
    )
  )
)
Training the model after pruning

---------------Epoch number: 0 ---Train accuracy: 91.36879432624113 ----Test accuracy: 85.59042553191489 --------------

---------------Epoch number: 1 ---Train accuracy: 91.40425531914893 ----Test accuracy: 87.67553191489361 --------------

---------------Epoch number: 2 ---Train accuracy: 91.49911347517731 ----Test accuracy: 88.09574468085107 --------------
…
layer1.0.layerArray.0.conv1
layer1.1.layerArray.0.conv1
layer2.0.layerArray.0.conv1
layer2.1.layerArray.0.conv1
layer3.0.layerArray.0.conv1
layer3.1.layerArray.0.conv1
layer4.0.layerArray.0.conv1
layer4.1.layerArray.0.conv1
Length of layer bounds  8
selected  UNIMP indices  [[30], [24], [58, 24], [43, 53], [55, 98, 51, 57], [85, 28, 6, 11], [78, 246, 130, 63, 162, 190, 42, 81], [239, 199, 124, 161, 190, 226, 35, 40]]
The length of indices is  8
31
31
62
62
124
124
248
248
ResNet(
  (conv1): PAIModulePyThread(
    (layerArray): ModuleList(
      (0): PBSequential(
        (model): Sequential(
          (0): Conv2d(3, 64, kernel_size=(7, 7), stride=(2, 2), padding=(3, 3), bias=False)
          (1): BatchNorm2d(64, eps=1e-05, momentum=0.1, affine=True, track_running_stats=True)
        )
      )
    )
  )
  (relu): ReLU(inplace=True)
  (maxpool): MaxPool2d(kernel_size=3, stride=2, padding=1, dilation=1, ceil_mode=False)
  (layer1): Sequential(
    (0): PAIModulePyThread(
      (layerArray): ModuleList(
        (0): BasicBlock(
          (conv1): Conv2d(64, 31, kernel_size=(3, 3), stride=(1, 1), padding=(1, 1), bias=False)
          (bn1): BatchNorm2d(31, eps=1e-05, momentum=0.1, affine=True, track_running_stats=True)
          (relu): ReLU(inplace=True)
          (conv2): Conv2d(31, 64, kernel_size=(3, 3), stride=(1, 1), padding=(1, 1), bias=False)
          (bn2): BatchNorm2d(64, eps=1e-05, momentum=0.1, affine=True, track_running_stats=True)
        )
      )
    )
    (1): PAIModulePyThread(
      (layerArray): ModuleList(
        (0): BasicBlock(
          (conv1): Conv2d(64, 31, kernel_size=(3, 3), stride=(1, 1), padding=(1, 1), bias=False)
          (bn1): BatchNorm2d(31, eps=1e-05, momentum=0.1, affine=True, track_running_stats=True)
          (relu): ReLU(inplace=True)
          (conv2): Conv2d(31, 64, kernel_size=(3, 3), stride=(1, 1), padding=(1, 1), bias=False)
          (bn2): BatchNorm2d(64, eps=1e-05, momentum=0.1, affine=True, track_running_stats=True)
        )
      )
    )
  )
  (layer2): Sequential(
    (0): PAIModulePyThread(
      (layerArray): ModuleList(
        (0): BasicBlock(
          (conv1): Conv2d(64, 62, kernel_size=(3, 3), stride=(2, 2), padding=(1, 1), bias=False)
          (bn1): BatchNorm2d(62, eps=1e-05, momentum=0.1, affine=True, track_running_stats=True)
          (relu): ReLU(inplace=True)
          (conv2): Conv2d(62, 128, kernel_size=(3, 3), stride=(1, 1), padding=(1, 1), bias=False)
          (bn2): BatchNorm2d(128, eps=1e-05, momentum=0.1, affine=True, track_running_stats=True)
          (downsample): Sequential(
            (0): Conv2d(62, 128, kernel_size=(1, 1), stride=(2, 2), bias=False)
            (1): BatchNorm2d(128, eps=1e-05, momentum=0.1, affine=True, track_running_stats=True)
          )
        )
      )
    )
    (1): PAIModulePyThread(
      (layerArray): ModuleList(
        (0): BasicBlock(
          (conv1): Conv2d(128, 62, kernel_size=(3, 3), stride=(1, 1), padding=(1, 1), bias=False)
          (bn1): BatchNorm2d(62, eps=1e-05, momentum=0.1, affine=True, track_running_stats=True)
          (relu): ReLU(inplace=True)
          (conv2): Conv2d(62, 128, kernel_size=(3, 3), stride=(1, 1), padding=(1, 1), bias=False)
          (bn2): BatchNorm2d(128, eps=1e-05, momentum=0.1, affine=True, track_running_stats=True)
        )
      )
    )
  )
  (layer3): Sequential(
    (0): PAIModulePyThread(
      (layerArray): ModuleList(
        (0): BasicBlock(
          (conv1): Conv2d(128, 124, kernel_size=(3, 3), stride=(2, 2), padding=(1, 1), bias=False)
          (bn1): BatchNorm2d(124, eps=1e-05, momentum=0.1, affine=True, track_running_stats=True)
          (relu): ReLU(inplace=True)
          (conv2): Conv2d(124, 256, kernel_size=(3, 3), stride=(1, 1), padding=(1, 1), bias=False)
          (bn2): BatchNorm2d(256, eps=1e-05, momentum=0.1, affine=True, track_running_stats=True)
          (downsample): Sequential(
            (0): Conv2d(124, 256, kernel_size=(1, 1), stride=(2, 2), bias=False)
            (1): BatchNorm2d(256, eps=1e-05, momentum=0.1, affine=True, track_running_stats=True)
          )
        )
      )
    )
    (1): PAIModulePyThread(
      (layerArray): ModuleList(
        (0): BasicBlock(
          (conv1): Conv2d(256, 124, kernel_size=(3, 3), stride=(1, 1), padding=(1, 1), bias=False)
          (bn1): BatchNorm2d(124, eps=1e-05, momentum=0.1, affine=True, track_running_stats=True)
          (relu): ReLU(inplace=True)
          (conv2): Conv2d(124, 256, kernel_size=(3, 3), stride=(1, 1), padding=(1, 1), bias=False)
          (bn2): BatchNorm2d(256, eps=1e-05, momentum=0.1, affine=True, track_running_stats=True)
        )
      )
    )
  )
  (layer4): Sequential(
    (0): PAIModulePyThread(
      (layerArray): ModuleList(
        (0): BasicBlock(
          (conv1): Conv2d(256, 248, kernel_size=(3, 3), stride=(2, 2), padding=(1, 1), bias=False)
          (bn1): BatchNorm2d(248, eps=1e-05, momentum=0.1, affine=True, track_running_stats=True)
          (relu): ReLU(inplace=True)
          (conv2): Conv2d(248, 512, kernel_size=(3, 3), stride=(1, 1), padding=(1, 1), bias=False)
          (bn2): BatchNorm2d(512, eps=1e-05, momentum=0.1, affine=True, track_running_stats=True)
          (downsample): Sequential(
            (0): Conv2d(248, 512, kernel_size=(1, 1), stride=(2, 2), bias=False)
            (1): BatchNorm2d(512, eps=1e-05, momentum=0.1, affine=True, track_running_stats=True)
          )
        )
      )
    )
    (1): PAIModulePyThread(
      (layerArray): ModuleList(
        (0): BasicBlock(
          (conv1): Conv2d(512, 248, kernel_size=(3, 3), stride=(1, 1), padding=(1, 1), bias=False)
          (bn1): BatchNorm2d(248, eps=1e-05, momentum=0.1, affine=True, track_running_stats=True)
          (relu): ReLU(inplace=True)
          (conv2): Conv2d(248, 512, kernel_size=(3, 3), stride=(1, 1), padding=(1, 1), bias=False)
          (bn2): BatchNorm2d(512, eps=1e-05, momentum=0.1, affine=True, track_running_stats=True)
        )
      )
    )
  )
  (avgpool): AdaptiveAvgPool2d(output_size=(1, 1))
  (fc): PAIModulePyThread(
    (layerArray): ModuleList(
      (0): Linear(in_features=512, out_features=1000, bias=True)
    )
  )
)
Training the model after pruning

---------------Epoch number: 0 ---Train accuracy: 92.2331560283688 ----Test accuracy: 87.04255319148936 --------------

---------------Epoch number: 1 ---Train accuracy: 92.12411347517731 ----Test accuracy: 86.80319148936171 --------------

---------------Epoch number: 2 ---Train accuracy: 92.1959219858156 ----Test accuracy: 87.1436170212766 --------------
…
layer1.0.layerArray.0.conv1
layer1.1.layerArray.0.conv1
layer2.0.layerArray.0.conv1
layer2.1.layerArray.0.conv1
layer3.0.layerArray.0.conv1
layer3.1.layerArray.0.conv1
layer4.0.layerArray.0.conv1
layer4.1.layerArray.0.conv1
Length of layer bounds  8
selected  UNIMP indices  [[23], [20], [46, 6], [46, 42], [123, 110, 103, 53], [14, 16, 82, 88], [96, 109, 95, 164, 195, 94, 14, 46], [38, 128, 244, 98, 106, 124, 132, 56]]
The length of indices is  8
30
30
60
60
120
120
240
240
ResNet(
  (conv1): PAIModulePyThread(
    (layerArray): ModuleList(
      (0): PBSequential(
        (model): Sequential(
          (0): Conv2d(3, 64, kernel_size=(7, 7), stride=(2, 2), padding=(3, 3), bias=False)
          (1): BatchNorm2d(64, eps=1e-05, momentum=0.1, affine=True, track_running_stats=True)
        )
      )
    )
  )
  (relu): ReLU(inplace=True)
  (maxpool): MaxPool2d(kernel_size=3, stride=2, padding=1, dilation=1, ceil_mode=False)
  (layer1): Sequential(
    (0): PAIModulePyThread(
      (layerArray): ModuleList(
        (0): BasicBlock(
          (conv1): Conv2d(64, 30, kernel_size=(3, 3), stride=(1, 1), padding=(1, 1), bias=False)
          (bn1): BatchNorm2d(30, eps=1e-05, momentum=0.1, affine=True, track_running_stats=True)
          (relu): ReLU(inplace=True)
          (conv2): Conv2d(30, 64, kernel_size=(3, 3), stride=(1, 1), padding=(1, 1), bias=False)
          (bn2): BatchNorm2d(64, eps=1e-05, momentum=0.1, affine=True, track_running_stats=True)
        )
      )
    )
    (1): PAIModulePyThread(
      (layerArray): ModuleList(
        (0): BasicBlock(
          (conv1): Conv2d(64, 30, kernel_size=(3, 3), stride=(1, 1), padding=(1, 1), bias=False)
          (bn1): BatchNorm2d(30, eps=1e-05, momentum=0.1, affine=True, track_running_stats=True)
          (relu): ReLU(inplace=True)
          (conv2): Conv2d(30, 64, kernel_size=(3, 3), stride=(1, 1), padding=(1, 1), bias=False)
          (bn2): BatchNorm2d(64, eps=1e-05, momentum=0.1, affine=True, track_running_stats=True)
        )
      )
    )
  )
  (layer2): Sequential(
    (0): PAIModulePyThread(
      (layerArray): ModuleList(
        (0): BasicBlock(
          (conv1): Conv2d(64, 60, kernel_size=(3, 3), stride=(2, 2), padding=(1, 1), bias=False)
          (bn1): BatchNorm2d(60, eps=1e-05, momentum=0.1, affine=True, track_running_stats=True)
          (relu): ReLU(inplace=True)
          (conv2): Conv2d(60, 128, kernel_size=(3, 3), stride=(1, 1), padding=(1, 1), bias=False)
          (bn2): BatchNorm2d(128, eps=1e-05, momentum=0.1, affine=True, track_running_stats=True)
          (downsample): Sequential(
            (0): Conv2d(60, 128, kernel_size=(1, 1), stride=(2, 2), bias=False)
            (1): BatchNorm2d(128, eps=1e-05, momentum=0.1, affine=True, track_running_stats=True)
          )
        )
      )
    )
    (1): PAIModulePyThread(
      (layerArray): ModuleList(
        (0): BasicBlock(
          (conv1): Conv2d(128, 60, kernel_size=(3, 3), stride=(1, 1), padding=(1, 1), bias=False)
          (bn1): BatchNorm2d(60, eps=1e-05, momentum=0.1, affine=True, track_running_stats=True)
          (relu): ReLU(inplace=True)
          (conv2): Conv2d(60, 128, kernel_size=(3, 3), stride=(1, 1), padding=(1, 1), bias=False)
          (bn2): BatchNorm2d(128, eps=1e-05, momentum=0.1, affine=True, track_running_stats=True)
        )
      )
    )
  )
  (layer3): Sequential(
    (0): PAIModulePyThread(
      (layerArray): ModuleList(
        (0): BasicBlock(
          (conv1): Conv2d(128, 120, kernel_size=(3, 3), stride=(2, 2), padding=(1, 1), bias=False)
          (bn1): BatchNorm2d(120, eps=1e-05, momentum=0.1, affine=True, track_running_stats=True)
          (relu): ReLU(inplace=True)
          (conv2): Conv2d(120, 256, kernel_size=(3, 3), stride=(1, 1), padding=(1, 1), bias=False)
          (bn2): BatchNorm2d(256, eps=1e-05, momentum=0.1, affine=True, track_running_stats=True)
          (downsample): Sequential(
            (0): Conv2d(120, 256, kernel_size=(1, 1), stride=(2, 2), bias=False)
            (1): BatchNorm2d(256, eps=1e-05, momentum=0.1, affine=True, track_running_stats=True)
          )
        )
      )
    )
    (1): PAIModulePyThread(
      (layerArray): ModuleList(
        (0): BasicBlock(
          (conv1): Conv2d(256, 120, kernel_size=(3, 3), stride=(1, 1), padding=(1, 1), bias=False)
          (bn1): BatchNorm2d(120, eps=1e-05, momentum=0.1, affine=True, track_running_stats=True)
          (relu): ReLU(inplace=True)
          (conv2): Conv2d(120, 256, kernel_size=(3, 3), stride=(1, 1), padding=(1, 1), bias=False)
          (bn2): BatchNorm2d(256, eps=1e-05, momentum=0.1, affine=True, track_running_stats=True)
        )
      )
    )
  )
  (layer4): Sequential(
    (0): PAIModulePyThread(
      (layerArray): ModuleList(
        (0): BasicBlock(
          (conv1): Conv2d(256, 240, kernel_size=(3, 3), stride=(2, 2), padding=(1, 1), bias=False)
          (bn1): BatchNorm2d(240, eps=1e-05, momentum=0.1, affine=True, track_running_stats=True)
          (relu): ReLU(inplace=True)
          (conv2): Conv2d(240, 512, kernel_size=(3, 3), stride=(1, 1), padding=(1, 1), bias=False)
          (bn2): BatchNorm2d(512, eps=1e-05, momentum=0.1, affine=True, track_running_stats=True)
          (downsample): Sequential(
            (0): Conv2d(240, 512, kernel_size=(1, 1), stride=(2, 2), bias=False)
            (1): BatchNorm2d(512, eps=1e-05, momentum=0.1, affine=True, track_running_stats=True)
          )
        )
      )
    )
    (1): PAIModulePyThread(
      (layerArray): ModuleList(
        (0): BasicBlock(
          (conv1): Conv2d(512, 240, kernel_size=(3, 3), stride=(1, 1), padding=(1, 1), bias=False)
          (bn1): BatchNorm2d(240, eps=1e-05, momentum=0.1, affine=True, track_running_stats=True)
          (relu): ReLU(inplace=True)
          (conv2): Conv2d(240, 512, kernel_size=(3, 3), stride=(1, 1), padding=(1, 1), bias=False)
          (bn2): BatchNorm2d(512, eps=1e-05, momentum=0.1, affine=True, track_running_stats=True)
        )
      )
    )
  )
  (avgpool): AdaptiveAvgPool2d(output_size=(1, 1))
  (fc): PAIModulePyThread(
    (layerArray): ModuleList(
      (0): Linear(in_features=512, out_features=1000, bias=True)
    )
  )
)
Training the model after pruning

---------------Epoch number: 0 ---Train accuracy: 90.69060283687944 ----Test accuracy: 85.87765957446808 --------------

---------------Epoch number: 1 ---Train accuracy: 90.9982269503546 ----Test accuracy: 86.76063829787235 --------------

---------------Epoch number: 2 ---Train accuracy: 91.50531914893617 ----Test accuracy: 87.47340425531915 --------------
…
layer1.0.layerArray.0.conv1
layer1.1.layerArray.0.conv1
layer2.0.layerArray.0.conv1
layer2.1.layerArray.0.conv1
layer3.0.layerArray.0.conv1
layer3.1.layerArray.0.conv1
layer4.0.layerArray.0.conv1
layer4.1.layerArray.0.conv1
Length of layer bounds  8
selected  UNIMP indices  [[14], [16], [2, 57], [56, 37], [22, 61, 92, 33], [99, 86, 93, 119], [182, 146, 75, 16, 156, 196, 207, 234], [139, 148, 215, 50, 159, 47, 68, 129]]
The length of indices is  8
29
29
58
58
116
116
232
232
ResNet(
  (conv1): PAIModulePyThread(
    (layerArray): ModuleList(
      (0): PBSequential(
        (model): Sequential(
          (0): Conv2d(3, 64, kernel_size=(7, 7), stride=(2, 2), padding=(3, 3), bias=False)
          (1): BatchNorm2d(64, eps=1e-05, momentum=0.1, affine=True, track_running_stats=True)
        )
      )
    )
  )
  (relu): ReLU(inplace=True)
  (maxpool): MaxPool2d(kernel_size=3, stride=2, padding=1, dilation=1, ceil_mode=False)
  (layer1): Sequential(
    (0): PAIModulePyThread(
      (layerArray): ModuleList(
        (0): BasicBlock(
          (conv1): Conv2d(64, 29, kernel_size=(3, 3), stride=(1, 1), padding=(1, 1), bias=False)
          (bn1): BatchNorm2d(29, eps=1e-05, momentum=0.1, affine=True, track_running_stats=True)
          (relu): ReLU(inplace=True)
          (conv2): Conv2d(29, 64, kernel_size=(3, 3), stride=(1, 1), padding=(1, 1), bias=False)
          (bn2): BatchNorm2d(64, eps=1e-05, momentum=0.1, affine=True, track_running_stats=True)
        )
      )
    )
    (1): PAIModulePyThread(
      (layerArray): ModuleList(
        (0): BasicBlock(
          (conv1): Conv2d(64, 29, kernel_size=(3, 3), stride=(1, 1), padding=(1, 1), bias=False)
          (bn1): BatchNorm2d(29, eps=1e-05, momentum=0.1, affine=True, track_running_stats=True)
          (relu): ReLU(inplace=True)
          (conv2): Conv2d(29, 64, kernel_size=(3, 3), stride=(1, 1), padding=(1, 1), bias=False)
          (bn2): BatchNorm2d(64, eps=1e-05, momentum=0.1, affine=True, track_running_stats=True)
        )
      )
    )
  )
  (layer2): Sequential(
    (0): PAIModulePyThread(
      (layerArray): ModuleList(
        (0): BasicBlock(
          (conv1): Conv2d(64, 58, kernel_size=(3, 3), stride=(2, 2), padding=(1, 1), bias=False)
          (bn1): BatchNorm2d(58, eps=1e-05, momentum=0.1, affine=True, track_running_stats=True)
          (relu): ReLU(inplace=True)
          (conv2): Conv2d(58, 128, kernel_size=(3, 3), stride=(1, 1), padding=(1, 1), bias=False)
          (bn2): BatchNorm2d(128, eps=1e-05, momentum=0.1, affine=True, track_running_stats=True)
          (downsample): Sequential(
            (0): Conv2d(58, 128, kernel_size=(1, 1), stride=(2, 2), bias=False)
            (1): BatchNorm2d(128, eps=1e-05, momentum=0.1, affine=True, track_running_stats=True)
          )
        )
      )
    )
    (1): PAIModulePyThread(
      (layerArray): ModuleList(
        (0): BasicBlock(
          (conv1): Conv2d(128, 58, kernel_size=(3, 3), stride=(1, 1), padding=(1, 1), bias=False)
          (bn1): BatchNorm2d(58, eps=1e-05, momentum=0.1, affine=True, track_running_stats=True)
          (relu): ReLU(inplace=True)
          (conv2): Conv2d(58, 128, kernel_size=(3, 3), stride=(1, 1), padding=(1, 1), bias=False)
          (bn2): BatchNorm2d(128, eps=1e-05, momentum=0.1, affine=True, track_running_stats=True)
        )
      )
    )
  )
  (layer3): Sequential(
    (0): PAIModulePyThread(
      (layerArray): ModuleList(
        (0): BasicBlock(
          (conv1): Conv2d(128, 116, kernel_size=(3, 3), stride=(2, 2), padding=(1, 1), bias=False)
          (bn1): BatchNorm2d(116, eps=1e-05, momentum=0.1, affine=True, track_running_stats=True)
          (relu): ReLU(inplace=True)
          (conv2): Conv2d(116, 256, kernel_size=(3, 3), stride=(1, 1), padding=(1, 1), bias=False)
          (bn2): BatchNorm2d(256, eps=1e-05, momentum=0.1, affine=True, track_running_stats=True)
          (downsample): Sequential(
            (0): Conv2d(116, 256, kernel_size=(1, 1), stride=(2, 2), bias=False)
            (1): BatchNorm2d(256, eps=1e-05, momentum=0.1, affine=True, track_running_stats=True)
          )
        )
      )
    )
    (1): PAIModulePyThread(
      (layerArray): ModuleList(
        (0): BasicBlock(
          (conv1): Conv2d(256, 116, kernel_size=(3, 3), stride=(1, 1), padding=(1, 1), bias=False)
          (bn1): BatchNorm2d(116, eps=1e-05, momentum=0.1, affine=True, track_running_stats=True)
          (relu): ReLU(inplace=True)
          (conv2): Conv2d(116, 256, kernel_size=(3, 3), stride=(1, 1), padding=(1, 1), bias=False)
          (bn2): BatchNorm2d(256, eps=1e-05, momentum=0.1, affine=True, track_running_stats=True)
        )
      )
    )
  )
  (layer4): Sequential(
    (0): PAIModulePyThread(
      (layerArray): ModuleList(
        (0): BasicBlock(
          (conv1): Conv2d(256, 232, kernel_size=(3, 3), stride=(2, 2), padding=(1, 1), bias=False)
          (bn1): BatchNorm2d(232, eps=1e-05, momentum=0.1, affine=True, track_running_stats=True)
          (relu): ReLU(inplace=True)
          (conv2): Conv2d(232, 512, kernel_size=(3, 3), stride=(1, 1), padding=(1, 1), bias=False)
          (bn2): BatchNorm2d(512, eps=1e-05, momentum=0.1, affine=True, track_running_stats=True)
          (downsample): Sequential(
            (0): Conv2d(232, 512, kernel_size=(1, 1), stride=(2, 2), bias=False)
            (1): BatchNorm2d(512, eps=1e-05, momentum=0.1, affine=True, track_running_stats=True)
          )
        )
      )
    )
    (1): PAIModulePyThread(
      (layerArray): ModuleList(
        (0): BasicBlock(
          (conv1): Conv2d(512, 232, kernel_size=(3, 3), stride=(1, 1), padding=(1, 1), bias=False)
          (bn1): BatchNorm2d(232, eps=1e-05, momentum=0.1, affine=True, track_running_stats=True)
          (relu): ReLU(inplace=True)
          (conv2): Conv2d(232, 512, kernel_size=(3, 3), stride=(1, 1), padding=(1, 1), bias=False)
          (bn2): BatchNorm2d(512, eps=1e-05, momentum=0.1, affine=True, track_running_stats=True)
        )
      )
    )
  )
  (avgpool): AdaptiveAvgPool2d(output_size=(1, 1))
  (fc): PAIModulePyThread(
    (layerArray): ModuleList(
      (0): Linear(in_features=512, out_features=1000, bias=True)
    )
  )
)
Training the model after pruning

---------------Epoch number: 0 ---Train accuracy: 92.64982269503547 ----Test accuracy: 87.47872340425532 --------------

---------------Epoch number: 1 ---Train accuracy: 92.55053191489361 ----Test accuracy: 87.7127659574468 --------------

---------------Epoch number: 2 ---Train accuracy: 92.47872340425532 ----Test accuracy: 87.73936170212765 --------------
…
layer1.0.layerArray.0.conv1
layer1.1.layerArray.0.conv1
layer2.0.layerArray.0.conv1
layer2.1.layerArray.0.conv1
layer3.0.layerArray.0.conv1
layer3.1.layerArray.0.conv1
layer4.0.layerArray.0.conv1
layer4.1.layerArray.0.conv1
Length of layer bounds  8
selected  UNIMP indices  [[19], [15], [51, 45], [30, 44], [38, 55, 82, 6], [115, 58, 86, 57], [167, 174, 31, 45, 55, 113, 163, 12], [176, 207, 115, 128, 211, 16, 79, 87]]
The length of indices is  8
28
28
56
56
112
112
224
224
ResNet(
  (conv1): PAIModulePyThread(
    (layerArray): ModuleList(
      (0): PBSequential(
        (model): Sequential(
          (0): Conv2d(3, 64, kernel_size=(7, 7), stride=(2, 2), padding=(3, 3), bias=False)
          (1): BatchNorm2d(64, eps=1e-05, momentum=0.1, affine=True, track_running_stats=True)
        )
      )
    )
  )
  (relu): ReLU(inplace=True)
  (maxpool): MaxPool2d(kernel_size=3, stride=2, padding=1, dilation=1, ceil_mode=False)
  (layer1): Sequential(
    (0): PAIModulePyThread(
      (layerArray): ModuleList(
        (0): BasicBlock(
          (conv1): Conv2d(64, 28, kernel_size=(3, 3), stride=(1, 1), padding=(1, 1), bias=False)
          (bn1): BatchNorm2d(28, eps=1e-05, momentum=0.1, affine=True, track_running_stats=True)
          (relu): ReLU(inplace=True)
          (conv2): Conv2d(28, 64, kernel_size=(3, 3), stride=(1, 1), padding=(1, 1), bias=False)
          (bn2): BatchNorm2d(64, eps=1e-05, momentum=0.1, affine=True, track_running_stats=True)
        )
      )
    )
    (1): PAIModulePyThread(
      (layerArray): ModuleList(
        (0): BasicBlock(
          (conv1): Conv2d(64, 28, kernel_size=(3, 3), stride=(1, 1), padding=(1, 1), bias=False)
          (bn1): BatchNorm2d(28, eps=1e-05, momentum=0.1, affine=True, track_running_stats=True)
          (relu): ReLU(inplace=True)
          (conv2): Conv2d(28, 64, kernel_size=(3, 3), stride=(1, 1), padding=(1, 1), bias=False)
          (bn2): BatchNorm2d(64, eps=1e-05, momentum=0.1, affine=True, track_running_stats=True)
        )
      )
    )
  )
  (layer2): Sequential(
    (0): PAIModulePyThread(
      (layerArray): ModuleList(
        (0): BasicBlock(
          (conv1): Conv2d(64, 56, kernel_size=(3, 3), stride=(2, 2), padding=(1, 1), bias=False)
          (bn1): BatchNorm2d(56, eps=1e-05, momentum=0.1, affine=True, track_running_stats=True)
          (relu): ReLU(inplace=True)
          (conv2): Conv2d(56, 128, kernel_size=(3, 3), stride=(1, 1), padding=(1, 1), bias=False)
          (bn2): BatchNorm2d(128, eps=1e-05, momentum=0.1, affine=True, track_running_stats=True)
          (downsample): Sequential(
            (0): Conv2d(56, 128, kernel_size=(1, 1), stride=(2, 2), bias=False)
            (1): BatchNorm2d(128, eps=1e-05, momentum=0.1, affine=True, track_running_stats=True)
          )
        )
      )
    )
    (1): PAIModulePyThread(
      (layerArray): ModuleList(
        (0): BasicBlock(
          (conv1): Conv2d(128, 56, kernel_size=(3, 3), stride=(1, 1), padding=(1, 1), bias=False)
          (bn1): BatchNorm2d(56, eps=1e-05, momentum=0.1, affine=True, track_running_stats=True)
          (relu): ReLU(inplace=True)
          (conv2): Conv2d(56, 128, kernel_size=(3, 3), stride=(1, 1), padding=(1, 1), bias=False)
          (bn2): BatchNorm2d(128, eps=1e-05, momentum=0.1, affine=True, track_running_stats=True)
        )
      )
    )
  )
  (layer3): Sequential(
    (0): PAIModulePyThread(
      (layerArray): ModuleList(
        (0): BasicBlock(
          (conv1): Conv2d(128, 112, kernel_size=(3, 3), stride=(2, 2), padding=(1, 1), bias=False)
          (bn1): BatchNorm2d(112, eps=1e-05, momentum=0.1, affine=True, track_running_stats=True)
          (relu): ReLU(inplace=True)
          (conv2): Conv2d(112, 256, kernel_size=(3, 3), stride=(1, 1), padding=(1, 1), bias=False)
          (bn2): BatchNorm2d(256, eps=1e-05, momentum=0.1, affine=True, track_running_stats=True)
          (downsample): Sequential(
            (0): Conv2d(112, 256, kernel_size=(1, 1), stride=(2, 2), bias=False)
            (1): BatchNorm2d(256, eps=1e-05, momentum=0.1, affine=True, track_running_stats=True)
          )
        )
      )
    )
    (1): PAIModulePyThread(
      (layerArray): ModuleList(
        (0): BasicBlock(
          (conv1): Conv2d(256, 112, kernel_size=(3, 3), stride=(1, 1), padding=(1, 1), bias=False)
          (bn1): BatchNorm2d(112, eps=1e-05, momentum=0.1, affine=True, track_running_stats=True)
          (relu): ReLU(inplace=True)
          (conv2): Conv2d(112, 256, kernel_size=(3, 3), stride=(1, 1), padding=(1, 1), bias=False)
          (bn2): BatchNorm2d(256, eps=1e-05, momentum=0.1, affine=True, track_running_stats=True)
        )
      )
    )
  )
  (layer4): Sequential(
    (0): PAIModulePyThread(
      (layerArray): ModuleList(
        (0): BasicBlock(
          (conv1): Conv2d(256, 224, kernel_size=(3, 3), stride=(2, 2), padding=(1, 1), bias=False)
          (bn1): BatchNorm2d(224, eps=1e-05, momentum=0.1, affine=True, track_running_stats=True)
          (relu): ReLU(inplace=True)
          (conv2): Conv2d(224, 512, kernel_size=(3, 3), stride=(1, 1), padding=(1, 1), bias=False)
          (bn2): BatchNorm2d(512, eps=1e-05, momentum=0.1, affine=True, track_running_stats=True)
          (downsample): Sequential(
            (0): Conv2d(224, 512, kernel_size=(1, 1), stride=(2, 2), bias=False)
            (1): BatchNorm2d(512, eps=1e-05, momentum=0.1, affine=True, track_running_stats=True)
          )
        )
      )
    )
    (1): PAIModulePyThread(
      (layerArray): ModuleList(
        (0): BasicBlock(
          (conv1): Conv2d(512, 224, kernel_size=(3, 3), stride=(1, 1), padding=(1, 1), bias=False)
          (bn1): BatchNorm2d(224, eps=1e-05, momentum=0.1, affine=True, track_running_stats=True)
          (relu): ReLU(inplace=True)
          (conv2): Conv2d(224, 512, kernel_size=(3, 3), stride=(1, 1), padding=(1, 1), bias=False)
          (bn2): BatchNorm2d(512, eps=1e-05, momentum=0.1, affine=True, track_running_stats=True)
        )
      )
    )
  )
  (avgpool): AdaptiveAvgPool2d(output_size=(1, 1))
  (fc): PAIModulePyThread(
    (layerArray): ModuleList(
      (0): Linear(in_features=512, out_features=1000, bias=True)
    )
  )
)
Training the model after pruning

---------------Epoch number: 0 ---Train accuracy: 92.58421985815603 ----Test accuracy: 87.8936170212766 --------------

---------------Epoch number: 1 ---Train accuracy: 92.59751773049645 ----Test accuracy: 87.77127659574468 --------------

---------------Epoch number: 2 ---Train accuracy: 92.61968085106383 ----Test accuracy: 87.9627659574468 --------------
…
